PythonChess/saved_models/chess_model_episode_100.pth (torch, 102696 bytes, 5 tensors)

fc1.weight f4 [128, 64]
0	0x3dbbfce3	0.09179094
1	0xbc840dd3	-0.016119873
2	0x3e0aee4d	0.13567467
3	0xbdae02c1	-0.08496619
4	0x3dcef19c	0.10104677
5	0x3d825599	0.06363983
6	0x3e6574d6	0.2240785
7	0x3d33441f	0.043766137
8	0x3df3339b	0.11875077
9	0xbe80919c	-0.2511109
10	0x3c9ec51a	0.019381095
11	0x3e9190e0	0.28430843
12	0x3e386e26	0.18010768
13	0xbe2b2d99	-0.16716613
14	0xbd5ac0d6	-0.05340656
15	0x3dd05b86	0.10173707
16	0xbfede56c	-1.8585639
17	0x3db205d2	0.086925164
18	0xbd911a2e	-0.070850715
19	0x3e292250	0.16516995
20	0xbdeda976	-0.11604588
21	0x3de5e263	0.112248205
22	0x3d9d810d	0.0769063
23	0x3d207ceb	0.03918163
24	0x3be5856e	0.0070044314
25	0x3e82b571	0.25529054
26	0xbda43e63	-0.08019712
27	0xbe91b92b	-0.28461584
28	0xbc69af46	-0.01426298
29	0x3e6bc996	0.23026118
30	0xbdf08982	-0.117449775
31	0x3f4397e3	0.76403636
32	0x3ddf4422	0.10901667
33	0xbd576c34	-0.052593425
34	0xbda15902	-0.07878305
35	0x3bc502c0	0.0060122907
36	0x3dfa35f4	0.12217322
37	0x3da09332	0.07840575
38	0x3d22b958	0.03972754
39	0x3d356068	0.044281393
40	0x3d3d12a4	0.046160355
41	0xbdd4a57e	-0.10383128
42	0xbdcc246a	-0.09967883
43	0x3df95b1a	0.12175579
44	0xbc791c30	-0.015204474
45	0x3d09b140	0.033616304
46	0x3db8b89e	0.09019588
47	0x3da872e0	0.08225036
48	0xbde78d92	-0.11306299
49	0x3df37866	0.118881986
50	0xbda7e4b6	-0.0819792
51	0x3d20e758	0.039283127
52	0x3d35aad8	0.044352382
53	0xbddbf062	-0.10739209
54	0x3c7e4090	0.015518323
55	0xbcf02a48	-0.029317036
56	0x3d5f0368	0.054446608
57	0x3c93eb10	0.018056422
58	0xbdf1f832	-0.118149176
59	0x3bfc1560	0.007692978
60	0x3dcc28ec	0.09968743
61	0xbde88920	-0.113542795
62	0x3dda72f8	0.1066646
63	0x3c7c9370	0.015416011
64	0x3e18756b	0.14888541
65	0x3e0d0823	0.13772635
66	0x3c04232c	0.008065026
67	0x3e07a2c9	0.13245691
68	0x3e892b75	0.26790968
69	0x3dae0bbf	0.08498334
70	0x3c31775a	0.010831678
71	0xbd819d4d	-0.06328831
72	0x3ce77a2e	0.028256502
73	0xbdbe0c23	-0.09279659
74	0x3dbebee0	0.0931375
75	0xbc6f73a9	-0.014614978
76	0xbe8afa76	-0.27144212
77	0xbf3ef58b	-0.7459342
78	0xbe99ccb6	-0.30038995
79	0xbe48e20a	-0.19617477
80	0x3c11d718	0.00890138
81	0xbfb63e39	-1.4237739
82	0x3e02de60	0.12780142
83	0xbd8e3e5c	-0.06945488
84	0xbd8261e3	-0.06366327
85	0xbe4bbca9	-0.19896187
86	0x3d848197	0.0647003
87	0xbe84eb81	-0.25960925
88	0x3ddb6af1	0.10713757
89	0xbfad5a7c	-1.3543239
90	0x3c09e308	0.008415945
91	0x3cc5112e	0.024056043
92	0xbcdcd287	-0.026955856
93	0x3d93c863	0.07215955
94	0x3dec9575	0.11551944
95	0xbca55af8	-0.020184979
96	0xbd0165a0	-0.031591058
97	0xbd77e490	-0.06052071
98	0x3c3140f0	0.010818705
99	0x3dd330ee	0.10312067
100	0xbd991a06	-0.07475667
101	0xbd470a84	-0.048594013
102	0xbd9c163e	-0.0762143
103	0xbc7c7cf0	-0.015410647
104	0x3d41e248	0.04733494
105	0x3b892740	0.004185587
106	0x3c9fc258	0.01950185
107	0xbdc83f92	-0.0977775
108	0x3de5c738	0.112196386
109	0xbdbe834e	-0.09302388
110	0x3d9a4a2e	0.0753368
111	0xbcaf8e78	-0.02143024
112	0x3db408d6	0.08790748
113	0xbca9d158	-0.020729706
114	0xbdc4195e	-0.09575151
115	0x3d82e23c	0.06390807
116	0x3d4dec68	0.050274283
117	0x3df1ef90	0.11813271
118	0x3ddd8340	0.108160496
119	0xbddcff1c	-0.10790846
120	0x3d0e299c	0.03470765
121	0xbdd44496	-0.10364644
122	0xbdf7f0f8	-0.12106508
123	0xbd518410	-0.051151335
124	0xbd091630	-0.033468425
125	0xbd2cbad8	-0.042170376
126	0x3b3ed680	0.0029119551
127	0xbdf15a2a	-0.117847756
128	0x3b7a6977	0.0038209835
129	0x3d6e9c75	0.058254678
130	0x3e15a4a3	0.14613585
131	0x3e8d47d1	0.27593854
132	0x3e3956eb	0.18099563
133	0xbd0868ee	-0.033303194
134	0xbcbce3f5	-0.023057917
135	0xbd28d315	-0.04121693
136	0x3dedc58d	0.116099454
137	0x3de7d197	0.11319273
138	0x3ce683b0	0.028138965
139	0xbeeb050d	-0.4590229
140	0x3e715fc4	0.23571688
141	0xbe642a86	-0.22281846
142	0x3e5ad032	0.21368483
143	0xbd3469e7	-0.04404631
144	0x3e45de69	0.19323124
145	0x3d8eb2b6	0.0696768
146	0xbdcada8c	-0.09904966
147	0x3dd9d704	0.10636714
148	0x3e6f454b	0.23366277
149	0xbf14ca78	-0.5812144
150	0x3c709c89	0.014685758
151	0x3da6f3b8	0.081519544
152	0x3d95a749	0.07307298
153	0x3d658674	0.056036428
154	0xbfff18dd	-1.9929463
155	0x3e822736	0.2542054
156	0xbd5ecc7d	-0.054394234
157	0xbf625b12	-0.8842021
158	0xbf90fa81	-1.1326448
159	0xbf24a0ae	-0.6430768
160	0x3dc65abe	0.096852764
161	0xbdfec736	-0.1244034
162	0xbb6fb600	-0.0036576986
163	0x3b8d7d80	0.0043179393
164	0x3d6d371c	0.057913885
165	0x3cc6a4a8	0.024248436
166	0xbdf0be70	-0.11755073
167	0xbd7fe098	-0.06247005
168	0x3d4c8f48	0.04994133
169	0x3d8ec8e0	0.069719076
170	0x3dca683a	0.09883161
171	0x3df21868	0.118210614
172	0x3c18de90	0.009330407
173	0x3d39d318	0.04536733
174	0xbd674c30	-0.056469142
175	0x3d8bb36c	0.068213314
176	0x3cfdb0a0	0.03096801
177	0x3db642ac	0.088994354
178	0xbdb7596c	-0.08952603
179	0x3dbc7e82	0.09203817
180	0xbd586d28	-0.052838475
181	0x3dde12ca	0.108434275
182	0xbd2c5278	-0.042070836
183	0xbc9b66d8	-0.018969938
184	0x3be27500	0.00691092
185	0xbd969526	-0.073526666
186	0x3c6df550	0.014523819
187	0xbb6aaec0	-0.0035809726
188	0x3ddd3a7c	0.10802171
189	0xbdc765de	-0.097362265
190	0x3df1d096	0.11807363
191	0xbd691184	-0.05690147
192	0x3cec47d9	0.028842853
193	0x3bc0acd3	0.0058799773
194	0xbc277606	-0.01022101
195	0x3db5726c	0.08859715
196	0x3e51a27d	0.2047214
197	0xbd7daab6	-0.06193038
198	0x3e9c2526	0.30497092
199	0xbd7b74f7	-0.061390843
200	0x3e04647a	0.12928954
201	0x3c458798	0.012056254
202	0xbf115dd6	-0.5678381
203	0xbe09b4f1	-0.1344793
204	0x3e337e75	0.17528708
205	0xbc78fa3b	-0.015196378
206	0xbee35d64	-0.4440719
207	0x3cae2d52	0.021261845
208	0xbe2fb4f1	-0.17158867
209	0x3be637b9	0.0070256856
210	0xbcc19c98	-0.02363424
211	0x3ded973d	0.11601112
212	0x3d314bea	0.043285288
213	0xbfac2fcc	-1.3452086
214	0xbf84b489	-1.0367595
215	0xbe06066d	-0.13088389
216	0xbb933de6	-0.004493463
217	0x3df54ed4	0.11977926
218	0x3e59d8fc	0.21274179
219	0xbc752d00	-0.014964342
220	0xbe64d804	-0.22348028
221	0x3db5d3b3	0.08878269
222	0x3dab9175	0.08377353
223	0x3dffb5d5	0.124858536
224	0xbb5471c0	-0.0032416433
225	0xbca0f460	-0.019647777
226	0x3dfe9044	0.1242986
227	0xbdcacb9a	-0.09902115
228	0xbddbd848	-0.10734612
229	0x3dbb2dc2	0.09139587
230	0x3d34c338	0.044131488
231	0x3ddc98f2	0.107713595
232	0x3db2c6a0	0.08729291
233	0xbd286308	-0.04111007
234	0xbd8a12d4	-0.067418724
235	0x3da50f06	0.08059506
236	0x3df6c714	0.1204969
237	0xbb95f4c0	-0.0045762956
238	0xbdeaebfa	-0.1147079
239	0xbd8d70de	-0.06906293
240	0xbcd62048	-0.02613844
241	0x3d906d64	0.070521146
242	0xbd468434	-0.048465922
243	0xbd06c7c4	-0.032905355
244	0xbd845d0c	-0.0646306
245	0xbdc27e80	-0.09496784
246	0xbd62a528	-0.055333287
247	0xbc137160	-0.008999199
248	0xbdb22cb0	-0.0869993
249	0x3d3a83c0	0.045535803
250	0x3d577a44	0.052606836
251	0xbdb422ae	-0.08795677
252	0x3cd1b838	0.025600538
253	0x3db5b0ce	0.088716134
254	0xbc65bed0	-0.014022544
255	0xbc10f890	-0.008848324

fc1.bias f4 [128]
0	0xbe28fe6c	-0.16503304
1	0xbeefdcef	-0.46848246
2	0xbe0a7e7a	-0.1352481
3	0xbf02581e	-0.50915706
4	0xbeb9dbc2	-0.36300474
5	0xbee18102	-0.44043738
6	0xbe9f8c5a	-0.31161767
7	0xbddb5110	-0.10708821
8	0xbe9dbfde	-0.30810446
9	0xbee5b1af	-0.44862124
10	0xbe9b971b	-0.30388722
11	0xbe8de058	-0.27710223
12	0xbf1661ec	-0.58743167
13	0xbed906ec	-0.42388093
14	0xbe968e2c	-0.29405344
15	0xbea761ea	-0.3269189
16	0xbe967f51	-0.2939401
17	0xbec22de2	-0.3792563
18	0xbedf5f83	-0.43627557
19	0xbd9a303c	-0.07528731
20	0xbec1a3bc	-0.37820232
21	0xbe005dc9	-0.12535776
22	0xbe8325a2	-0.2561465
23	0xbeb44eb1	-0.35216287
24	0xbec3069d	-0.38090983
25	0xbe8428d7	-0.25812408
26	0xbecdb75c	-0.40178955
27	0xbd98b15e	-0.07455705
28	0xbee63043	-0.44958696
29	0xbe8beec2	-0.27330595
30	0xbe68214f	-0.22668956
31	0xbe7a171a	-0.24422875
32	0xbe79fd63	-0.24413066
33	0xbeefd456	-0.46841687
34	0xbf16ea7b	-0.5895154
35	0xbe778220	-0.24170732
36	0xbf01cee2	-0.50706303
37	0xbebb0312	-0.3652578
38	0xbea12248	-0.31471467
39	0xbe4dac99	-0.20085372
40	0xbe572966	-0.21011886
41	0xbe61a484	-0.22035414
42	0xbe8dff96	-0.2773406
43	0xbed7a44a	-0.4211753
44	0xbeb5b38b	-0.35488543
45	0xbeef4e9c	-0.46739662
46	0xbe195135	-0.14972384
47	0xbe2fddbb	-0.17174427
48	0xbf045ce9	-0.5170427
49	0xbf0010ce	-0.5002564
50	0xbf0b1b1c	-0.5433824
51	0xbef8d69f	-0.48601243
52	0xbea5f588	-0.32413888
53	0xbf0216b4	-0.5081589
54	0xbeec2906	-0.46125048
55	0xbedea36c	-0.43484056
56	0xbe79accf	-0.24382327
57	0xbebf348d	-0.3734478
58	0xbee492ba	-0.44643193
59	0xbe8485cf	-0.25883338
60	0xbf367bc9	-0.7128263
61	0xbe8394de	-0.25699514
62	0xbf1154e7	-0.56770176
63	0xbed87122	-0.42273813
64	0xbed64ad9	-0.4185398
65	0xbe7e0ee4	-0.24810368
66	0xbf0aa2b9	-0.54154545
67	0xbee1a7ae	-0.44073242
68	0xbe9f8b9e	-0.31161207
69	0xbe9e2d0c	-0.30893743
70	0xbdd30082	-0.10302831
71	0xbe72ab77	-0.23698221
72	0xbec55370	-0.3854022
73	0xbdce3e5c	-0.10070488
74	0x3cfb329a	0.030663777
75	0xbe34a35d	-0.17640443
76	0xbe8c4c88	-0.2740214
77	0xbeb61681	-0.35564044
78	0x3ca1f38c	0.019769453
79	0xbec753b6	-0.38931054
80	0xbe171ad2	-0.14756325
81	0xbed47ca1	-0.41501334
82	0xbecee5e3	-0.40409765
83	0xbe9f6979	-0.31135157
84	0xbdd362b2	-0.10321559
85	0xbea2449f	-0.3169298
86	0xbef0b232	-0.47010952
87	0xbec2c1cb	-0.38038477
88	0xbe964162	-0.29346758
89	0xbe8094e6	-0.251136
90	0xbed140fb	-0.4086989
91	0xbe07639d	-0.13221593
92	0xbe841706	-0.25798815
93	0xbe9dbb86	-0.30807132
94	0xbe82bec4	-0.25536168
95	0xbe02fabe	-0.12790963
96	0xbe96af45	-0.29430595
97	0xbf18fec6	-0.59763753
98	0xbe3b4190	-0.18286729
99	0xbe8314e2	-0.2560187
100	0xbe3d7c60	-0.18504477
101	0xbf0eb531	-0.55745226
102	0xbee7c15f	-0.45264718
103	0xbeaba37f	-0.33523175
104	0xbd0e7a87	-0.03478482
105	0xbed62f42	-0.4183293
106	0xbdfc1ee1	-0.12310577
107	0xbf15a0de	-0.5844859
108	0xbee9001b	-0.45507893
109	0xbefc1068	-0.49231267
110	0xbe77acf5	-0.24187072
111	0xbede710a	-0.43445617
112	0xbe995221	-0.29945472
113	0xbe61fe7c	-0.22069734
114	0xbe5e1252	-0.21686676
115	0xbe1d1dde	-0.15343425
116	0xbe074037	-0.1320809
117	0xbe92cd5f	-0.2867231
118	0xbe478814	-0.19485503
119	0xbeb62100	-0.35572052
120	0xbe5e6820	-0.21719408
121	0xbed8ad53	-0.42319736
122	0xbf44e1fb	-0.7690732
123	0xbf0405b4	-0.515712
124	0xbe615216	-0.2200397
125	0xbed169ee	-0.4090113
126	0xbed69135	-0.4190766
127	0xbebdbeb8	-0.3705957

fc2.weight f4 [128, 128]
0	0xbea8ada3	-0.32944974
1	0xbc9e58b5	-0.019329408
2	0x3dfbc100	0.12292671
3	0x3e36cb00	0.17850876
4	0x3e448af8	0.19193637
5	0xbd20bb22	-0.039240964
6	0x3db93f70	0.09045303
7	0x3e7465e8	0.23866999
8	0xbca87813	-0.020565068
9	0xbea21eee	-0.31664222
10	0xbd85f251	-0.06540359
11	0xbd352ca2	-0.04423202
12	0xbcb410a0	-0.021980584
13	0x3d4347e0	0.047675967
14	0xbd94f77e	-0.07273768
15	0x3e45cd44	0.19316584
16	0x3e2e8e49	0.17046465
17	0xbd64f354	-0.05589612
18	0xbee987e9	-0.45611504
19	0xbcb0ffcb	-0.021606347
20	0x3e9bd8a5	0.30438724
21	0xbe041fd3	-0.12902765
22	0xbea62d42	-0.32456404
23	0x3d5ea55c	0.054356918
24	0x3e719083	0.23590283
25	0x3d374358	0.04474196
26	0x3e04ed49	0.12981142
27	0xbeb335bd	-0.35001937
28	0x3dac1a18	0.084034145
29	0xbee3d108	-0.44495416
30	0xbe0d72eb	-0.13813369
31	0xbed7bc65	-0.4213592
32	0x3e03e1ac	0.12879056
33	0x3e6b4f01	0.22979356
34	0x3c523e3d	0.012832222
35	0xbd9c57a5	-0.07633904
36	0x3e44ba6d	0.19211741
37	0x3dbf91f8	0.09354013
38	0xbde0cf40	-0.1097703
39	0xbf30b918	-0.6903243
40	0xbdceb542	-0.10093166
41	0xbf078496	-0.52936685
42	0x3e1e3cdc	0.15452904
43	0xbefbf664	-0.4921142
44	0x3d36022a	0.044435658
45	0xbd00790a	-0.03136543
46	0x3ec54d06	0.38535327
47	0xbd2ba236	-0.041902743
48	0xbf1fce84	-0.6242449
49	0x3e9163cb	0.28396448
50	0xbe922d7d	-0.2855033
51	0xbcec7ae3	-0.02886719
52	0xbe48b8b7	-0.19601713
53	0x3e00c305	0.12574394
54	0xbe784930	-0.24246669
55	0xbdbcf38a	-0.09226139
56	0xbe397b56	-0.18113455
57	0xbe30178a	-0.1719648
58	0xbdf7dcda	-0.12102671
59	0xbe08c1f6	-0.1335524
60	0xbe137b1a	-0.14402428
61	0xbed64ebc	-0.41856945
62	0x3da20562	0.07911183
63	0xbec7f8a2	-0.3905688
64	0x3c0f33ca	0.008740375
65	0xbe186327	-0.14881574
66	0xbe20f224	-0.1571737
67	0xbda2850f	-0.07935535
68	0x3dda19c5	0.106494464
69	0x3ce987da	0.028507162
70	0x3da93f54	0.08264032
71	0xbdbb2ab0	-0.09139001
72	0xbc534ef2	-0.01289724
73	0xbdbdce79	-0.09267897
74	0x3da4d245	0.08047918
75	0xbe4f61ed	-0.202522
76	0xbdca0bd8	-0.0986554
77	0x3d882303	0.06647303
78	0xbee3d270	-0.4449649
79	0xbe0f83cf	-0.14015125
80	0xbe971276	-0.29506272
81	0x3e0d03c8	0.13770974
82	0xbeacd07f	-0.3375282
83	0xbd9648d6	-0.07338111
84	0xbf2a87a3	-0.66613215
85	0xbdf368e5	-0.118852414
86	0x3e6a58fd	0.22885509
87	0xbeaa93fd	-0.3331603
88	0xbe9652b9	-0.29359987
89	0x3dce5924	0.10075596
90	0xbdbfb02b	-0.09359773
91	0xbe09e88b	-0.13467614
92	0xbe1f40c4	-0.1555205
93	0xbe26d700	-0.16292953
94	0xbe1ff880	-0.15622139
95	0xbe253b0e	-0.16135809
96	0xbe39f78b	-0.18160836
97	0xbec5fb54	-0.3866831
98	0x3dc93493	0.09824481
99	0xbd5d24dc	-0.05399023
100	0xbd4a5698	-0.04939899
101	0xbe2363ca	-0.15956035
102	0x3dc46638	0.09589809
103	0x3d8b744f	0.068092935
104	0xbd8d14a3	-0.06888702
105	0x3dd472f3	0.10373487
106	0x3e1e348c	0.15449733
107	0xbe1f6e7b	-0.15569489
108	0xbd179c0d	-0.037014056
109	0xbe5f8525	-0.21828134
110	0xbe4fa2ed	-0.20276995
111	0x3d2aeb48	0.041728288
112	0x3e5a9684	0.2134648
113	0x3c8bd56f	0.017069547
114	0x3e8727bd	0.26397505
115	0x3d192b9b	0.0373951
116	0x3c3e41d5	0.011612375
117	0x3df4d145	0.119539775
118	0x3e373566	0.17891464
119	0xbded88f8	-0.1159839
120	0xbde63db8	-0.11242241
121	0x3d77c027	0.060485985
122	0xbd48f676	-0.04906317
123	0xbe0369b5	-0.12833293
124	0xbe04a425	-0.12953241
125	0x3dd80706	0.105482146
126	0xbeaa3f79	-0.3325155
127	0xbb95130c	-0.0045493897
128	0x3d2d6746	0.042334817
129	0x3d697760	0.05699861
130	0x3e1dd6c5	0.1541396
131	0x3cd4049e	0.025881108
132	0xbd9cb159	-0.07651014
133	0x3ca701e6	0.020386647
134	0xbdcf7a88	-0.10130793
135	0xbe97e66c	-0.29667985
136	0xbed5cb07	-0.4175646
137	0xbe2bcea5	-0.16778047
138	0xbe3692dd	-0.17829461
139	0xbda00bbf	-0.078147404
140	0xbdd9b325	-0.10629872
141	0x3c86434f	0.016389517
142	0xbd68ed26	-0.056866787
143	0x3e4001a2	0.18750623
144	0xbd395b64	-0.045253173
145	0xbda2bd03	-0.079462074
146	0xbde0686f	-0.10957419
147	0x3cfffd43	0.031248694
148	0xbf1cf8b2	-0.6131698
149	0x3c16fe89	0.009215959
150	0x3da1c8d4	0.07899633
151	0x3db4d1d0	0.08829081
152	0xbdaf2c20	-0.08553338
153	0x3d2387fe	0.039924614
154	0x3cf19a66	0.029492568
155	0xbe70e2bf	-0.23523997
156	0xbe05a978	-0.13052928
157	0x3e15354b	0.14571111
158	0xbe9c95be	-0.30582994
159	0x3d8f8b0a	0.070089415
160	0xbee643aa	-0.449735
161	0xbe0da6f3	-0.13833217
162	0xbe1ea7a0	-0.15493631
163	0xbeec86fd	-0.46196738
164	0xbe1fd52a	-0.1560866
165	0xbde95950	-0.11393988
166	0x3c65faa9	0.014036813
167	0xbd8b363a	-0.06797452
168	0x3e3fcbaa	0.18730035
169	0xbdceb3c8	-0.10092884
170	0xbdc50410	-0.096199155
171	0xbdc5c7d0	-0.09657252
172	0xbd498540	-0.049199343
173	0x3bba0bd1	0.005677678
174	0x3d49bc1b	0.049251657
175	0x3de4278b	0.11140355
176	0xbc2db6d5	-0.010602673
177	0xbeb6e427	-0.3572094
178	0xbe80ba20	-0.25142002
179	0xbe0fa515	-0.14027818
180	0xbe2be9d3	-0.16788416
181	0x3d3dc128	0.046326786
182	0xbe5c55d9	-0.21517123
183	0xbd95d374	-0.07315722
184	0xbe075c2b	-0.13218753
185	0xbe40beb9	-0.18822755
186	0x3e188427	0.14894162
187	0xbd283118	-0.041062444
188	0xbd929309	-0.07156951
189	0x3ce4f37c	0.027948134
190	0xbd9f5ea1	-0.07781721
191	0x3d71f99f	0.059075948
192	0xbe48b9e7	-0.19602166
193	0xbe106583	-0.14101224
194	0xbeb0b15d	-0.34510317
195	0xbe9d9124	-0.30774796
196	0xbddde3f3	-0.108344935
197	0xbe8f3077	-0.27966663
198	0xbe25d7f4	-0.16195661
199	0xbe3af502	-0.18257526
200	0xbe01b5cd	-0.12667008
201	0xbde2e394	-0.11078563
202	0xbcd32102	-0.025772575
203	0xbec49125	-0.38391986
204	0xbdca0827	-0.09864836
205	0xbea84d83	-0.32871637
206	0xbf00a7c8	-0.50256014
207	0x3b963fa1	0.004585222
208	0xbe14f755	-0.14547475
209	0xbd3f1f5c	-0.046660766
210	0xbc9af158	-0.01891391
211	0xbf114919	-0.56752163
212	0x3d90d178	0.07071203
213	0xbe8e6d6b	-0.27817854
214	0xbec21b50	-0.37911463
215	0x3d3ac072	0.045593686
216	0xbe1aa84b	-0.15103261
217	0x3db07ec1	0.086179264
218	0xbc7a987a	-0.015295142
219	0xbc16fa99	-0.009215021
220	0x3e25d2b7	0.16193663
221	0xbe202e9e	-0.15642783
222	0xbca51ec2	-0.020156268
223	0xbe6e09e6	-0.23245963
224	0xbe302486	-0.17201433
225	0x3d4f6ded	0.050641943
226	0x3dac2af0	0.08406627
227	0xbed3d1d3	-0.4137102
228	0x3e644fad	0.22296019
229	0xbe25ecf3	-0.1620367
230	0x3c837e01	0.016051294
231	0xbe7f919f	-0.24957894
232	0x3d62e804	0.05539705
233	0xbc9afab7	-0.018918378
234	0xbea2cc71	-0.317966
235	0xbe89a549	-0.26883915
236	0xbdba3cf2	-0.09093656
237	0xbc9adc5c	-0.018903904
238	0xbd7ff071	-0.062485162
239	0xbeacbfb8	-0.3374002
240	0x3bda6bf6	0.006665702
241	0xbe5d90ba	-0.2163724
242	0xbe0a5839	-0.13510217
243	0xbe3aa062	-0.18225244
244	0xbdbc3a71	-0.09190834
245	0x3d6121c1	0.05496383
246	0x3c8d5291	0.017251285
247	0xbe60b404	-0.2194367
248	0x3d8fa905	0.0701466
249	0x3d3cea6a	0.046121992
250	0x3d924cb3	0.071435355
251	0xbdf4d85d	-0.119553305
252	0xbe26685d	-0.16250749
253	0xbdc3e2c6	-0.09564738
254	0xbd8576f8	-0.06516832
255	0xbe285450	-0.16438413

fc2.bias f4 [128]
0	0x3ddeee06	0.10885243
1	0xbd184993	-0.03717954
2	0xbc7543f4	-0.014969815
3	0xbe55fb7e	-0.20896718
4	0xbce8b40b	-0.028406164
5	0xbe332dbe	-0.17497918
6	0xbe2f1654	-0.17098361
7	0xbe58f00f	-0.21185325
8	0xbdc40af1	-0.095723994
9	0xbe0bb5a8	-0.13643515
10	0xbe54ffaf	-0.2080066
11	0x3ec23c74	0.37936747
12	0xbcd40f86	-0.025886308
13	0x3cea810c	0.028625987
14	0xbdd2f8ff	-0.103013985
15	0xbe0bdbbf	-0.13658045
16	0xbe280aa8	-0.16410315
17	0xbd1237e2	-0.035697825
18	0xbe52af25	-0.20574625
19	0xbd7ec457	-0.062198963
20	0xbe0e4de8	-0.13896906
21	0xbe071251	-0.13190581
22	0xbe89c634	-0.2690903
23	0x3ee85cb3	0.45383224
24	0xbdeb484b	-0.11488398
25	0xbe01cea0	-0.12676477
26	0xbdb207b3	-0.08692875
27	0xbcec4416	-0.02884106
28	0x3db349c3	0.08754303
29	0xbd50596b	-0.050866526
30	0x3e7f8423	0.2495275
31	0xbe4b60d2	-0.19861153
32	0xbe772f85	-0.24139221
33	0xbbff972a	-0.0078000026
34	0x3ebd2467	0.36941835
35	0x3ce5d09a	0.02805357
36	0xbe19d4e2	-0.15022615
37	0xbe47fcb6	-0.19529995
38	0xbe653f10	-0.22387338
39	0x3e5c715b	0.21527617
40	0xbdca48d3	-0.09877171
41	0xbe740478	-0.2382983
42	0xbbe35f53	-0.0069388538
43	0xbe283260	-0.16425467
44	0x3ebc0706	0.36724108
45	0x3ddc6169	0.10760767
46	0x3c82033d	0.015870685
47	0x3ee7c90f	0.45270583
48	0xbe5b3373	-0.21406345
49	0x3e81c8cf	0.25348517
50	0x3f0b6fb8	0.54467344
51	0xbd7e80b0	-0.062134445
52	0xbe05de28	-0.13073027
53	0x3e8fb7db	0.28069958
54	0x3d8681d5	0.06567732
55	0xbd0b7e4e	-0.034056
56	0xbdae8be6	-0.08522777
57	0xbd8d548a	-0.0690089
58	0x3d8ffd18	0.07030696
59	0xbd2e6f63	-0.042586695
60	0xbd19d0ec	-0.03755276
61	0x3e460040	0.19336033
62	0xbe134c23	-0.14384513
63	0xbd10f92d	-0.035393883
64	0xbab42912	-0.001374515
65	0xbe6fec17	-0.23429905
66	0x3de371df	0.111057036
67	0x3d3b5550	0.045735657
68	0xbdc6693b	-0.0968804
69	0xbb780126	-0.0037842481
70	0xbd5f06dd	-0.054449905
71	0x3e92ea4a	0.28694373
72	0xbdbbed3e	-0.0917611
73	0xbe036189	-0.12830175
74	0x3e809c29	0.2511914
75	0x3c86e4c2	0.016466502
76	0x3e28f161	0.16498329
77	0xbe0b5963	-0.13608317
78	0xbe22fab4	-0.15915948
79	0x3ce607af	0.028079836
80	0x3d2c4f38	0.042067736
81	0xbd332b3c	-0.043742403
82	0xbe39f716	-0.18160662
83	0xbdd32418	-0.10309619
84	0x3e01e9ae	0.12686798
85	0x3e7d7cf8	0.24754703
86	0xbd4bfcc4	-0.049801603
87	0x3e84b99f	0.25922868
88	0xbe18a112	-0.14905193
89	0x3d3f6a8b	0.046732467
90	0x3e9a7104	0.3016435
91	0x3af14812	0.001840832
92	0x3dafc372	0.085822
93	0x3d33cad1	0.043894593
94	0xbe0b2144	-0.13586909
95	0x3ea06dbb	0.31333718
96	0x3e2c19ed	0.16806765
97	0xbe76b17a	-0.2409114
98	0x3e9c8796	0.30572194
99	0x3d3db841	0.046318296
100	0x3e6295a7	0.221274
101	0x3de75fdb	0.1129758
102	0xbe13aad2	-0.14420632
103	0x3e84d11a	0.25940782
104	0xbca63ab2	-0.02029166
105	0xbd91c11d	-0.071169116
106	0xbe0f725e	-0.14008471
107	0xbe6aa22e	-0.22913429
108	0xbdebd3b4	-0.115149885
109	0xbc7266d8	-0.014795028
110	0xbe239b36	-0.15977177
111	0xbdbd6520	-0.09247804
112	0xbe0bfccf	-0.13670658
113	0x3ead8b8d	0.3389553
114	0xbdd959a8	-0.10612804
115	0x3c2d37b3	0.010572362
116	0xbe1103bd	-0.14161582
117	0xbdd03096	-0.10165517
118	0x3dcc4598	0.099742115
119	0xbca85e76	-0.020552855
120	0xbe035a99	-0.12827529
121	0x3caba84d	0.020954276
122	0xbe1f4205	-0.15552528
123	0xbe1c143d	-0.15242095
124	0x3e85f71d	0.26165095
125	0x3e507137	0.20355688
126	0x3e19c19e	0.15015265
127	0xbdb6c8c3	-0.08925011

fc3.weight f4 [1, 128]
0	0x3d9a1b17	0.07524698
1	0x3e8f0160	0.27930737
2	0xbd8b4b37	-0.068014555
3	0xbe497af6	-0.19675812
4	0xbe122778	-0.14272869
5	0x3c31ec67	0.010859585
6	0x3e183079	0.14862241
7	0xbddd127a	-0.1079454
8	0xbdde6a7f	-0.10860156
9	0xbdc53606	-0.09629445
10	0xbc30ec55	-0.010798533
11	0x3d980727	0.07423239
12	0xbe233be7	-0.1594082
13	0x3d8471cd	0.06467018
14	0xbdb40665	-0.08790282
15	0x3c0e0200	0.008667469
16	0xbeea652f	-0.45780322
17	0xbe47b216	-0.19501528
18	0x3cbcf2d5	0.02306501
19	0x3e53d12b	0.2068526
20	0x3c9b93f8	0.018991455
21	0xbbfcb7ac	-0.007712325
22	0x3b5444de	0.003238968
23	0x3de9c7db	0.114150725
24	0xbbad43c6	-0.0052876202
25	0xbde7b316	-0.11313455
26	0x3d4eae7c	0.05045937
27	0xbe7775bf	-0.2416601
28	0xbdde82d4	-0.10864797
29	0x3d364305	0.04449751
30	0x3e3afb9f	0.18260048
31	0xbb806ed9	-0.003919464
32	0xbdd7dd4e	-0.105402574
33	0xbdb25724	-0.08708027
34	0x3d13e361	0.036105517
35	0x3d8c2d22	0.06844546
36	0x3c626ab5	0.013819386
37	0xbd9d1adf	-0.07671141
38	0x3d51191c	0.051049337
39	0x3da37d73	0.07982912
40	0xbc98056f	-0.018557278
41	0xbd9827ac	-0.07429442
42	0xbdd31ea7	-0.10308581
43	0x3c3fdc82	0.011710288
44	0x3d2cec05	0.042217273
45	0xbe0b032a	-0.13575426
46	0xbcfd7594	-0.030939855
47	0x3d87bdf3	0.06628027
48	0x3c951d03	0.01820231
49	0x3dc4105d	0.095734335
50	0x3d11d63d	0.035604704
51	0x3df90429	0.121589966
52	0x3caead2d	0.021322811
53	0x3cf0b8b7	0.029384954
54	0xbc280337	-0.010254673
55	0x3d984a97	0.07436102
56	0xbdb25595	-0.0870773
57	0xbe58a4b9	-0.21156587
58	0x3d977f8e	0.07397376
59	0xbe33e2ca	-0.17566982
60	0xbdb4d1db	-0.08829089
61	0x3d1da4f1	0.03848738
62	0xbe03933a	-0.12849131
63	0xbe2f04f7	-0.17091738
64	0x3dd37fbb	0.10327097
65	0xbe72fafa	-0.23728552
66	0x3da3f4fa	0.0800571
67	0xbd8b5133	-0.06802597
68	0xbc854d5c	-0.01627224
69	0x3c7aded2	0.015311914
70	0xbdec998b	-0.115527235
71	0x3deeb16c	0.11654934
72	0x3de95305	0.11392788
73	0xbe3b024a	-0.18262592
74	0x3d33033d	0.04370426
75	0x3d955653	0.07291856
76	0x3d955ffc	0.07293698
77	0x3d4639af	0.048394855
78	0xbc8c1e61	-0.01710433
79	0x3d799615	0.060934145
80	0x3db9504e	0.0904852
81	0x3e020f50	0.12701154
82	0xbe422138	-0.18957984
83	0xbe60c777	-0.2195109
84	0xbe3adf68	-0.18249285
85	0x3d37ec0c	0.044902846
86	0xbde1e2f9	-0.1102962
87	0x3df1b2af	0.11801659
88	0x3c581999	0.013189697
89	0x3ddf555b	0.10904952
90	0x3d453d9d	0.048154462
91	0xbd921169	-0.07132227
92	0x3e161a5a	0.1465849
93	0x3dd1c324	0.10242298
94	0xbc37fa53	-0.011229116
95	0x3da461c2	0.08026458
96	0x3d2c8148	0.04211548
97	0xbe8114b0	-0.25211096
98	0x3d92dbb9	0.07170815
99	0x3e54964f	0.20760463
100	0x3c9a557b	0.018839588
101	0x3db8c957	0.090227775
102	0xbcdd595a	-0.027020145
103	0x3de19ec7	0.110166125
104	0xbdd63064	-0.104584485
105	0xbe38dabf	-0.18052195
106	0xbdb82539	-0.08991475
107	0x3d461921	0.04836381
108	0xbd45ad50	-0.048260987
109	0xbd5b0bb3	-0.053477954
110	0xbcb38551	-0.021914156
111	0xbd41cbdc	-0.047313556
112	0x3b51275e	0.0031914334
113	0x3dfa6e82	0.12228109
114	0x3e1b8621	0.15187885
115	0xbd323444	-0.043506876
116	0x3cd627ac	0.026141964
117	0xbd1844e4	-0.037175074
118	0x3d93c7ed	0.07215867
119	0xbe11bdaa	-0.14232507
120	0x3c03c409	0.008042344
121	0xbd1b56ce	-0.03792458
122	0x3daf17c4	0.08549455
123	0xbd6259d1	-0.055261437
124	0x3cf118b2	0.029430721
125	0x3ddb5a2e	0.1071056
126	0xbd3d096c	-0.046151564
127	0xbc16d7e7	-0.009206749
