PythonChess/saved_models/chess_model_episode_400.pth (torch, 102696 bytes, 5 tensors)

fc1.weight f4 [128, 64]
0.008987043 -0.095588244 0.3356895 0.11468098 0.66298485 0.10274162 -0.0021832264 0.34559304
0.6018345 -0.41081074 -0.41269112 0.16193455 0.22836629 -0.08899365 0.020896405 -0.2717381
-2.3815947 -0.03759721 -0.4050659 0.13827802 -0.33532128 0.38177082 0.15763606 0.10325932
-0.1897527 0.03939699 -0.3087996 -0.15129279 0.14714561 0.3980157 0.12783048 1.0896949
0.10901667 -0.052593425 -0.07878305 0.0060122907 0.12217322 0.07840575 0.03972754 0.044281393
0.046160355 -0.10383128 -0.09967883 0.12175579 -0.015204474 0.033616304 0.09019588 0.08225036
-0.11306299 0.118881986 -0.0819792 0.039283127 0.044352382 -0.10739209 0.015518323 -0.029317036
0.054446608 0.018056422 -0.118149176 0.007692978 0.09968743 -0.113542795 0.1066646 0.015416011
0.16773614 0.29716647 -0.0340124 0.48789975 0.6002523 0.56229603 0.4430076 0.09083802
-0.11364984 0.09963428 0.21846864 -0.07242122 -0.18568192 -1.3506956 -0.15888926 -0.16704342
0.17536111 -2.1563032 0.23615302 0.15137275 0.20912647 0.31546804 -0.09454306 -3.1602405e-05
0.19714323 -2.316673 -0.56154776 -1.0374562 -0.008898867 -0.36067224 0.68966407 0.29443383
-0.031591058 -0.06052071 0.010818705 0.10312067 -0.07475667 -0.048594013 -0.0762143 -0.015410647
0.04733494 0.004185587 0.01950185 -0.0977775 0.112196386 -0.09302388 0.0753368 -0.02143024
0.08790748 -0.020729706 -0.09575151 0.06390807 0.050274283 0.11813271 0.108160496 -0.10790846
0.03470765 -0.10364644 -0.12106508 -0.051151335 -0.033468425 -0.042170376 0.0029119551 -0.117847756
0.12976155 0.06265365 0.15342933 0.092201665 0.30631214 -0.0035776703 -0.29410228 -0.35584277
0.14508241 0.00049911137 0.05228122 -0.89287657 0.860632 0.0987639 0.7067151 0.059390355
0.32620013 0.024082046 -0.413379 0.06988733 0.038110618 -0.622385 0.2006566 0.097254045
0.13674594 0.0925533 -2.251926 0.31310603 -0.08254015 -1.8127503 -1.190765 -1.3024907
0.096852764 -0.1244034 -0.0036576986 0.0043179393 0.057913885 0.024248436 -0.11755073 -0.06247005
0.04994133 0.069719076 0.09883161 0.118210614 0.009330407 0.04536733 -0.056469142 0.068213314
0.03096801 0.088994354 -0.08952603 0.09203817 -0.052838475 0.108434275 -0.042070836 -0.018969938
0.00691092 -0.073526666 0.014523819 -0.0035809726 0.10802171 -0.097362265 0.11807363 -0.05690147
-0.103455596 0.1513543 0.042112675 0.13914469 0.15509517 -0.04205029 0.017351953 -0.478034
0.6967866 -0.012024866 -0.41394058 -0.2554635 0.4990806 -0.46238914 -1.2249182 -0.14222588
0.106496416 0.11786328 -0.06780617 0.37668014 0.11194223 -2.4563286 -0.9555403 -0.08855446
-0.7424883 0.12764941 0.29664275 -0.08347026 -1.4083891 -0.28346235 -0.35630158 0.08897592
-0.0032416433 -0.019647777 0.1242986 -0.09902115 -0.10734612 0.09139587 0.044131488 0.107713595
0.08729291 -0.04111007 -0.067418724 0.08059506 0.1204969 -0.0045762956 -0.1147079 -0.06906293
-0.02613844 0.070521146 -0.048465922 -0.032905355 -0.0646306 -0.09496784 -0.055333287 -0.008999199
-0.0869993 0.045535803 0.052606836 -0.08795677 0.025600538 0.088716134 -0.014022544 -0.008848324
00000000: 643e 133c c5c3 c3bd 7fdf ab3e dddd ea3d
00000010: 60b9 293f 336a d23d 7614 0fbb 92f1 b03e
00000020: d311 1a3f c955 d2be 404c d3be 2cd2 253e
00000030: dad8 693e 4e42 b6bd f02e ab3c 4221 8bbe
00000040: 0c6c 18c0 88ff 19bd cc64 cfbe c198 0d3e
00000050: 3baf abbe 7777 c33e 596b 213e 9f79 d33d
00000060: 884e 42be bd5e 213d fb1a 9ebe 7fec 1abe
00000070: 57ad 163e b7c8 cb3e fee5 023e 1f7b 8b3f
00000080: 2244 df3d 346c 57bd 0259 a1bd c002 c53b
00000090: f435 fa3d 3293 a03d 58b9 223d 6860 353d
000000a0: a412 3d3d 7ea5 d4bd 6a24 ccbd 1a5b f93d
000000b0: 301c 79bc 40b1 093d 9eb8 b83d e072 a83d
000000c0: 928d e7bd 6678 f33d b6e4 a7bd 58e7 203d
000000d0: d8aa 353d 62f0 dbbd 9040 7e3c 482a f0bc
000000e0: 6803 5f3d 10eb 933c 32f8 f1bd 6015 fc3b
000000f0: ec28 cc3d 2089 e8bd f872 da3d 7093 7c3c
00000100: 06c3 2b3e 3426 983e 9650 0bbd ffcd f93e
00000110: 22aa 193f a2f2 0f3f e4d1 e23e 4909 ba3d
00000120: 3fc1 e8bd 0f0d cc3d 3eb6 5f3e 9451 94bd
00000130: 6723 3ebe 98e3 acbf deb3 22be 6e0d 2bbe
00000140: dd91 333e df00 0ac0 19d2 713e 7501 1b3e
00000150: 4025 563e 0785 a13e cb9f c1bd d38c 04b8
00000160: eadf 493e 5f44 14c0 98c1 0fbf 5dcb 84bf
00000170: 8ecc 11bc 08aa b8be d38d 303f 08c0 963e
00000180: a065 01bd 90e4 77bd f040 313c ee30 d33d
00000190: 061a 99bd 840a 47bd 3e16 9cbd f07c 7cbc
000001a0: 48e2 413d 4027 893b 58c2 9f3c 923f c8bd
000001b0: 38c7 e53d 4e83 bebd 2e4a 9a3d 788e afbc
000001c0: d608 b43d 58d1 a9bc 5e19 c4bd 3ce2 823d
000001d0: 68ec 4d3d 90ef f13d 4083 dd3d 1cff dcbd
000001e0: 9c29 0e3d 9644 d4bd f8f0 f7bd 1084 51bd
000001f0: 3016 09bd d8ba 2cbd 80d6 3e3b 2a5a f1bd
00000200: 36e0 043e 8f50 803d 941c 1d3e 3ad4 bc3d
00000210: f2d4 9c3e 5977 6abb 9394 96be 0631 b6be
00000220: 7c90 143e ccd6 023a d524 563d 8f93 64bf
00000230: 6152 5c3f ba44 ca3d 48eb 343f 4d43 733d
00000240: b403 a73e b647 c53c 6aa6 d3be 1721 8f3d
00000250: e119 1c3d a054 1fbf ec78 4d3e 212d c73d
00000260: 2107 0c3e 968c bd3d 8e1f 10c0 6f4f a03e
00000270: cf0a a9bd 3408 e8bf fd6a 98bf 04b8 a6bf
00000280: be5a c63d 36c7 febd 00b6 6fbb 807d 8d3b
00000290: 1c37 6d3d a8a4 c63c 70be f0bd 98e0 7fbd
000002a0: 488f 4c3d e0c8 8e3d 3a68 ca3d 6818 f23d
000002b0: 90de 183c 18d3 393d 304c 67bd 6cb3 8b3d
000002c0: a0b0 fd3c ac42 b63d 6c59 b7bd 827e bc3d
000002d0: 286d 58bd ca12 de3d 7852 2cbd d866 9bbc
000002e0: 0075 e23b 2695 96bd 50f5 6d3c c0ae 6abb
000002f0: 7c3a dd3d de65 c7bd 96d0 f13d 8411 69bd
00000300: 87e0 d3bd 9ffc 1a3e 577e 2c3d f27b 0e3e
00000310: 45d1 1e3e ed3c 2cbd af25 8e3c dfc0 f4be
00000320: 9b60 323f f203 45bc 05f0 d3be 1dcc 82be
00000330: 7e87 ff3e 45be ecbe 1fca 9cbf a9a3 11be
00000340: cb1a da3d 4e62 f13d f6dd 8abd 38dc c03e
00000350: f841 e53d 7d34 1dc0 4a9e 74bf 0a5c b5bd
00000360: b713 3ebf 87b6 023e 8fe1 973e 75f2 aabd
00000370: 1846 b4bf fa21 91be 296d b6be 0239 b63d
00000380: c071 54bb 60f4 a0bc 4490 fe3d 9acb cabd
00000390: 48d8 dbbd c22d bb3d 38c3 343d f298 dc3d
000003a0: a0c6 b23d 0863 28bd d412 8abd 060f a53d
000003b0: 14c7 f63d c0f4 95bb faeb eabd de70 8dbd
000003c0: 4820 d6bc 646d 903d 3484 46bd c4c7 06bd
000003d0: 0c5d 84bd 807e c2bd 28a5 62bd 6071 13bc
000003e0: b02c b2bd c083 3a3d 447a 573d ae22 b4bd
000003f0: 38b8 d13c ceb0 b53d d0be 65bc 90f8 10bc

fc1.bias f4 [128]
-0.34154254 -0.41299734 -0.29787117 -0.6156496 -0.6524115 -0.58015037 -0.6888389 -0.271289
-0.56778306 -0.6131234 -0.67475957 -0.8325166 -0.85273 -0.8260516 -0.40529183 -0.5264031
-0.41144362 -0.59348404 -0.6131632 -0.33836594 -0.64637405 -0.17261194 -0.38251927 -0.6112951
-0.5513527 -0.4082359 -0.6452253 -0.26098853 -0.66662514 -0.38023204 -0.5890697 -0.2639792
-0.48477405 -1.4577231 -0.87787956 -0.4543333 -1.0203726 -0.34852353 -0.91414267 -0.56380945
-0.45954868 -0.96923774 -0.3207954 -0.7327722 -0.6205071 -0.96170473 -0.12306601 -0.30663067
-0.7981828 -0.93903804 -0.7836502 -0.48017752 -0.45824516 -0.5978272 -0.79869944 -0.5432429
-0.33295876 -0.8745012 -0.6111062 -0.6407067 -2.0216265 -0.38399148 -0.9873469 -0.56672716
-0.72906375 -0.25580546 -1.347817 -0.86483043 -0.45172015 -0.84631604 -0.038068876 -0.3925532
-0.6973282 -0.20469464 -0.10117953 -0.2964637 -0.51841265 -0.58169454 -0.32571375 -0.5237754
-0.5774378 -0.6349488 -0.62872565 -0.4863003 -0.37055242 -0.48870477 -0.68694 -0.8533549
-0.3616627 -0.57835287 -0.8857412 -0.3747041 -1.00071 -0.5914647 -0.8462754 -0.21971115
-0.34780556 -0.9197811 -0.4015196 -0.41911602 -0.32023257 -0.79078525 -1.3858423 -0.86260366
-0.21772255 -0.7927722 -0.84004545 -1.4168113 -0.8052007 -0.8023076 -0.5376749 -0.4032835
-0.37270805 -0.45254397 -0.47480118 -0.44131106 -0.17298508 -0.6036977 -0.08214232 -0.618142
-0.6060591 -0.6304939 -1.7255584 -1.1562402 -0.21152958 -0.7157908 -0.7879128 -0.8326488
00000000: aade aebe 6374 d3be 9282 98be 369b 1dbf
00000010: 7104 27bf bc84 14bf bf57 30bf 64e6 8abe
00000020: 3b5a 11bf a8f5 1cbf 0bbd 2cbf cf1f 55bf
00000030: 834c 5abf 1e78 53bf 6982 cfbe 5bc2 06bf
00000040: bda8 d2be 92ee 17bf 43f8 1cbf 4d3e adbe
00000050: c578 25bf 2fc1 30be 91d9 c3be d67d 1cbf
00000060: 7325 0dbf 4c04 d1be 7c2d 25bf 4aa0 85be
00000070: f2a7 2abf c6ad c2be 46cd 16bf 4828 87be
00000080: 4e34 f8be ac96 babf b7bc 60bf 609e e8be
00000090: 929b 82bf ad71 b2be 4105 6abf d155 10bf
000000a0: f749 ebbe f71f 78bf 4b3f a4be f596 3bbf
000000b0: 8ed9 1ebf 4832 76bf 080a fcbd b2fe 9cbe
000000c0: b555 4cbf cc64 70bf 4d9d 48bf d4d9 f5be
000000d0: 1c9f eabe 340b 19bf 9177 4cbf f711 0bbf
000000e0: 9279 aabe 50df 5fbf 7571 1cbf 5b05 24bf
000000f0: 5462 01c0 889a c4be c4c2 7cbf 0815 11bf
00000100: eca3 3abf eff8 82be 4485 acbf 8765 5dbf
00000110: dd47 e7be 2ba8 58bf 1cee 1bbd bcfc c8be
00000120: 1a84 32bf 799b 51be 3737 cfbd 17ca 97be
00000130: b1b6 04bf efe9 14bf f4c3 a6be 2516 06bf
00000140: f7d2 13bf 018c 22bf 2af4 20bf 5afc f8be
00000150: 0cb9 bdbe 8337 fabe 4ddb 2fbf 7775 5abf
00000160: da2b b9be ef0e 14bf efbf 62bf 37d9 bfbe
00000170: 4417 80bf 3b6a 17bf 81a5 58bf f6fb 60be
00000180: 9213 b2be c676 6bbf fa93 cdbe 6096 d6be
00000190: 86f5 a3be e770 4abf 4863 b1bf 98d3 5cbf
000001a0: a9f2 5ebe 1ef3 4abf 380d 57bf 135a b5bf
000001b0: a221 4ebf 0864 4dbf 10a5 09bf 2d7b cebe
000001c0: 97d3 bebe d8b3 e7be 2419 f3be 86f3 e1be
000001d0: 0023 31be ef8b 1abf 3c3a a8bd 8e3e 1ebf
000001e0: b026 1bbf 0c68 21bf 19df dcbf aeff 93bf
000001f0: 369b 58be 113e 37bf a7b4 49bf 7928 55bf

fc2.weight f4 [128, 128]
-0.33409545 -0.230159 0.11447483 0.12277479 0.067779146 0.17493777 0.09907418 0.08656255
-0.3097169 -1.1824356 -0.11253599 -0.22301933 -0.29734 -0.8798997 -0.28988874 0.0070833927
-0.09660027 -0.26784855 -0.262526 0.020440817 0.22363847 -0.5009473 -0.38906556 0.22459577
0.21342406 -0.48763078 0.19291137 -0.30735442 0.25728136 -0.40959162 -0.373465 -0.0010641909
0.16332078 -0.047495246 0.027039668 -0.28287128 0.059993964 -0.05030014 -0.16331282 -0.87112117
-0.25308976 -1.2442492 0.0012436142 -0.52187836 0.11379587 -0.1475232 0.37398332 -0.2630538
-0.4989205 -0.48252973 -0.4081107 0.49774855 -0.14926635 -0.2972567 0.02209112 -0.10730794
-0.115788825 -0.5069729 -0.31202564 0.069034584 -0.14780076 -0.88799757 -0.41380686 0.40204203
0.11746301 -0.43033123 -0.073222145 -0.78676546 0.055139914 0.26257846 0.2618595 -0.32039437
0.16115876 0.043865807 0.19010048 -1.2393812 -0.3503409 0.25158852 -0.92170256 -0.07733418
-0.10056816 0.10035322 -0.4608461 0.08954326 -1.1409622 -0.014129596 -0.16641447 -0.7104335
-0.4200662 -0.4804692 -0.2346093 -0.15075006 -0.111795895 -0.29599237 -0.3551924 -0.5503398
-0.10610406 -0.12828654 -0.16201389 -0.0869076 -0.032745108 0.03702021 -0.16031201 0.5926552
-0.15930262 -0.57681876 -0.018427907 0.01777829 -0.22358975 -0.051206637 0.32551005 0.08783126
-0.48663902 0.17902629 0.08674431 0.3621034 -0.4262074 0.12105257 0.07184369 -0.1712927
0.23426877 -0.570378 0.010086191 -0.36021286 0.34342796 0.07892418 -0.26217398 0.29001632
0.06558243 -0.056572676 -0.005921848 -0.17637971 -0.23617107 -0.1616643 -0.42844763 -0.5880945
-0.6530146 -0.48067674 -0.701632 0.090432756 -0.20594682 0.16450389 -0.3993271 -0.24454635
-0.003490957 0.03274555 -0.1415738 0.068401456 -0.8954587 0.15890571 -0.52664113 -0.032484744
-0.21726447 0.32299945 -0.32862952 0.08061235 -0.3803552 -0.20146097 -0.7665398 0.09544024
-0.6928386 -0.08153449 -0.13179484 -1.4485575 -0.22360805 0.15556148 -0.3583762 0.08843089
0.10195052 -0.440852 -0.101022355 -0.362425 -0.5427974 -0.31785822 -0.25620064 -0.015012621
-0.025356062 0.13284814 -0.09706916 0.20641242 -0.59977794 -0.09348359 -0.113377914 -0.4104526
-0.24439558 -0.08740313 0.25849357 -0.45689663 -0.033164073 -0.14364015 -0.14958313 -0.6820653
-0.21034032 -0.38300958 -0.36077532 -0.36108503 -0.41430533 -0.30116838 -0.07999003 -0.42297894
-0.1117271 -0.12137636 -0.32470033 -0.3986898 9.6899465e-05 0.15549311 -0.51293033 -0.14135005
-0.82210636 -0.053220626 -0.21514358 -1.3841546 -0.6034745 -0.57191 0.17252836 -0.023982896
-0.033060137 -0.1328324 -0.014152735 0.0402225 -0.16192101 -0.29646936 -0.21993352 -0.17159548
-0.4911423 0.19321375 -0.004577623 0.26000616 -0.080696225 -0.14943253 0.05943557 -0.25360897
0.15519506 -0.53689194 -0.043096863 -0.2631402 -0.63705635 -0.09347407 -0.08107353 -0.590982
-0.13059163 0.06678706 -0.0551587 -0.16916685 0.022182178 0.005296833 0.040481616 0.025561865
-0.4305136 -0.2686815 0.10112876 -0.12988777 -0.2947423 -0.22856298 0.18697926 -0.17578436
00000000: 8f0e abbe cdae 6bbe c871 ea3d 5971 fb3d
00000010: cbcf 8a3d e322 333e 67e7 ca3d b547 b13d
00000020: 3793 9ebe 0d5a 97bf 4579 e6bd 2e5f 64be
00000030: f33c 98be 1b41 61bf 4c6c 94be ce1b e83b
00000040: 5dd6 c5bd 7223 89be cf69 86be 8073 a73c
00000050: 7c01 653e 153e 00bf 9a33 c7be 6ffc 653e
00000060: d68b 5a3e beaa f9be 8f8a 453e 8f5d 9dbe
00000070: 62ba 833e feb5 d1be ce36 bfbe 527c 8bba
00000080: 903d 273e 608a 42bd 4b82 dd3c 81d4 90be
00000090: 3bbc 753d 8507 4ebd 7a3b 27be cc01 5fbf
000000a0: fb94 81be 8f43 9fbf c500 a33a d299 05bf
000000b0: cf0d e93d 5210 17be be7a bf3e fdae 86be
000000c0: 8272 ffbe 230e f7be e3f3 d0be e6d8 fe3e
000000d0: 47d9 18be 0832 98be 70f8 b43c 44c4 dbbd
000000e0: b122 edbd fac8 01bf d3c1 9fbe 0162 8d3d
000000f0: 1559 17be cf53 63bf 7ede d3be 74d8 cd3e
00000100: 7290 f03d 6054 dcbe 7ef5 95bd 7669 49bf
00000110: 64da 613d af70 863e 7312 863e bb0a a4be
00000120: cd06 253e a2ac 333d b3a9 423e 0ba4 9ebf
00000130: e25f b3be 36d0 803e b3f4 6bbf 6261 9ebd
00000140: aef6 cdbd fd85 cd3d 05f4 ebbe 7562 b73d
00000150: 0d0b 92bf d27f 67bc 8e68 2abe f8de 35bf
00000160: eb12 d7be 0f00 f6be 6c3d 70be 395e 1abe
00000170: 3ff5 e4bd 508c 97be c7db b5be 12e3 0cbf
00000180: 164d d9bd 8c5d 03be f8e6 25be 9dfc b1bd
00000190: bc1f 06bd 81a2 173d d528 24be 40b8 173f
000001a0: 3a20 23be 65aa 13bf 1ff6 96bc c7a3 913c
000001b0: b6f4 64be 0dbe 51bd 41a9 a63e e0e0 b33d
000001c0: c028 f9be ab52 373e 00a7 b13d 9e65 b93e
000001d0: db37 dabe 69ea f73d c922 933d 5b67 2fbe
000001e0: 27e4 6f3e 4b04 12bf 8d40 253c d26d b8be
000001f0: cad5 af3e 00a3 a13d ab3b 86be 057d 943e
00000200: 1550 863d c0b8 67bd 100c c2bb e29c 34be
00000210: d4d6 71be 548b 25be 7d5d dbbe 5c8d 16bf
00000220: f72b 27bf 431b f6be 289e 33bf cf34 b93d
00000230: b9e3 52be b573 283e 9a74 ccbe 5c6a 7abe
00000240: 8ac8 64bb 3320 063d b9f8 10be 1016 8c3d
00000250: c83c 65bf 2eb8 223e f4d1 06bf b90e 05bd
00000260: 947a 5ebe 2f60 a53e 2142 a8be 1618 a53d
00000270: ebbd c2be c94b 4ebe f43b 44bf 2c76 c33d
00000280: df5d 31bf 8efb a6bd 3af5 06be 556a b9bf
00000290: 82f9 64be 824b 1f3e 167d b7be 411b b53d
000002a0: 6fcb d03d 5ab7 e1be cfe4 cebd c58f b9be
000002b0: c5f4 0abf 50be a2be bb2c 83be 7ff7 75bc
000002c0: 84b7 cfbc 5809 083e 32cc c6bd c75d 533e
000002d0: 0c8b 19bf 5374 bfbd ae32 e8bd d826 d2be
000002e0: d642 7abe 6a00 b3bd 4559 843e 5bee e9be
000002f0: 0dd7 07bd 6716 13be 522c 19be d59b 2ebf
00000300: 7463 57be d519 c4be 8bb7 b8be 23e0 b8be
00000310: d41f d4be be32 9abe d0d1 a3bd b290 d8be
00000320: 2ed1 e4bd 2b94 f8bd 1f3f a6be 1221 ccbe
00000330: 8136 cb38 9639 1f3e 674f 03bf 11be 10be
00000340: 9075 52bf dffd 59bd 994e 5cbe fa2b b1bf
00000350: 4e7d 1abf b268 12bf 46ab 303e c777 c4bc
00000360: 116a 07bd 3705 08be dfe0 67bc 59c0 243d
00000370: 9fce 25be d5ca 97be 4136 61be bab6 2fbe
00000380: 0177 fbbe d3d9 453e e3ff 95bb 871f 853e
00000390: 1044 a5bd d704 19be b672 733d 09d9 81be
000003a0: 74eb 1e3e c071 09bf 5686 30bd 50ba 86be
000003b0: 2016 23bf 556f bfbd e109 a6bd 994a 17bf
000003c0: d0b9 05be a7c7 883d 17ee 61bd 133a 2dbe
000003d0: 66b7 b53c 0e91 ad3b 0dd0 253d 1e67 d13c
000003e0: 476c dcbe 9f90 89be 981c cf3d 4d01 05be
000003f0: 76e8 96be 6a0c 6abe 7e77 3f3e d100 34be

fc2.bias f4 [128]
0.6094949 0.1850573 0.06106721 -0.3995451 -0.112869784 -0.241824 -0.28483838 -0.29337907
-0.28419116 -0.4582951 -0.27148193 0.55533105 0.10626415 -0.017303567 -0.25742567 -0.39937508
-0.39832342 -0.24403353 -0.28665593 -0.36728165 -0.22749233 -0.1541671 -0.5449162 1.0963619
-0.26561657 -0.47926816 -0.3603093 -0.12120547 0.20975229 -0.31994516 0.3044952 -0.37800294
-0.41478965 -0.19896042 0.9929004 0.17385963 -0.31610334 -0.41396698 -0.31627873 0.74157125
-0.29467502 -0.106056295 -0.08328457 -0.4035554 1.0487353 -0.16729477 0.02103079 1.2369304
-0.37436476 0.19998662 1.6237506 0.16348954 -0.41379592 0.48679626 -0.26272303 0.32293326
-0.41849768 -0.38985205 0.379544 -0.27515802 -0.43120778 0.06672579 -0.19889253 -0.17656283
-0.17687486 -0.5779213 0.1797282 -0.45187253 -0.3111024 -0.25460896 -0.19437623 0.23449527
-0.17891248 -0.100334674 0.20319489 -0.25907686 0.49011618 -0.113722004 -0.08418272 0.35919186
0.18393391 -0.16863313 -0.3936569 -0.4698821 0.03182285 0.47189775 -0.25208455 0.80796826
-0.2462455 -0.4574647 1.0294852 -0.37223417 0.06767484 -0.28909332 -0.28115785 0.8020307
0.34427732 -0.49014807 0.71732736 -0.026782805 0.08596345 0.57283014 -0.27297083 0.6738706
-0.10428655 -0.4111605 -0.46874493 -0.45756453 -0.5134904 -0.2853696 -0.20399682 -0.26745158
-0.35071623 0.4201088 -0.25791043 -0.19106561 -0.2869077 -0.30933243 0.6756805 -0.109567836
-0.4489868 -0.3921423 -0.48973525 -0.15768337 0.50960857 0.07693439 -0.29660115 -0.19696027
00000000: dc07 1c3f a97f 3d3e 9c21 7a3d 2d91 ccbe
00000010: 4628 e7bd b6a0 77be 56d6 91be c835 96be
00000020: 8181 91be a8a5 eabe aeff 8abe 2d2a 0e3f
00000030: 05a1 d93d 36c0 8dbc 4ccd 83be e47a ccbe
00000040: 0cf1 cbbe ede3 79be 91c4 92be 570c bcbe
00000050: c0f3 68be fbdd 1dbe a17f 0bbf 9655 8c3f
00000060: e5fe 87be a362 f5be 767a b8be 933a f8bd
00000070: 4ec9 563e dacf a3be cbe6 9b3e 9a89 c1be
00000080: 4f5f d4be 48bc 4bbe b82e 7e3f 4208 323e
00000090: 4cd8 a1be 7bf3 d3be 49ef a1be 9dd7 3d3f
000000a0: a5df 96be 0b34 d9bd 1a91 aabd d09e cebe
000000b0: f53c 863f 524f 2bbe c348 ac3c bc53 9e3f
000000c0: bdac bfbe 4bc9 4c3e 0fd7 cf3f cd69 273e
000000d0: 0fdd d3be 5c3d f93e a283 86be 8257 a53e
000000e0: 5445 d6be b09a c7be 9753 c23e 83e1 8cbe
000000f0: 44c7 dcbe 88a7 883d 7caa 4bbe e3cc 34be
00000100: af1e 35be a6f2 13bf ab0a 383e d65b e7be
00000110: d048 9fbe 1b5c 82be 900a 47be 871f 703e
00000120: d534 37be 447c cdbd 5212 503e b9a5 84be
00000130: 82f0 fa3e 15e7 e8bd fd67 acbd ffe7 b73e
00000140: 2c59 3c3e 2aae 2cbe 668d c9be 6394 f0be
00000150: ad58 023d 959c f13e 3a11 81be 02d7 4e3f
00000160: c827 7cbe d038 eabe 2cc6 833f 7a95 bebe
00000170: 1b99 8a3d 0a04 94be ecf3 8fbe e251 4d3f
00000180: 1e45 b03e b0f4 fabe c4a2 373f 9d67 dbbc
00000190: 9b0d b03d ffa4 123f d5c2 8bbe c982 2c3f
000001a0: 3094 d5bd a183 d2be 56ff efbe e645 eabe
000001b0: 1b74 03bf f71b 92be 8be4 50be 6aef 88be
000001c0: 1491 b3be 8018 d73e d60c 84be b4a6 43be
000001d0: 91e5 92be d260 9ebe 66f9 2c3f 1a65 e0bd
000001e0: 99e1 e5be e0c6 c8be 94be fabe c077 21be
000001f0: b575 023f c78f 9d3d 1bdc 97be f4af 49be

fc3.weight f4 [1, 128]
0.028590487 0.05918428 -0.14041495 -0.0015459206 -0.19029751 0.058539778 0.014415579 -0.07550611
-0.025187386 -0.17687279 -0.01080713 0.033455804 -0.18518232 0.027308604 -0.12408101 -0.017365271
-0.10976526 0.00040458358 0.019789286 0.09553246 0.058793884 0.03880281 -0.036422607 0.053993575
-0.06627047 -0.1500065 0.016745957 -0.12362197 -0.07063694 0.02783153 0.046830747 0.104263246
-0.03177588 -0.16559859 0.029891338 0.013178393 -0.120740734 -0.035855398 0.0060633495 0.02943052
-0.0777473 -0.058974825 -0.16956052 -0.19862281 0.02800223 -0.041678976 -0.05250288 0.038320016
-0.016078632 0.04084858 0.019547349 0.05996145 -0.07443058 0.031750873 -0.027082697 0.029458445
-0.0741465 -0.16427965 0.046696085 0.049092624 -0.19129331 0.049369015 -0.103592835 -0.06552079
0.04578244 -0.14003725 0.027889967 -0.058240984 -0.049612023 0.051840328 -0.03470215 0.0502862
0.057172343 -0.082576536 -0.090483926 -0.026144098 0.03560822 -0.106120914 -0.15335858 0.024071833
0.045733415 -0.016904356 -0.16413128 -0.025891915 -0.05329185 0.042780735 -0.023008423 0.06388682
-0.022112595 0.03178688 0.04762208 -0.054721333 0.07890969 0.11907821 -0.035922218 0.04213823
0.052848782 -0.04380329 0.04227341 0.066502765 0.032455336 0.05427014 0.0015377599 0.034515005
-0.029591663 -0.24136311 0.00027207134 -0.17892747 -0.10260467 -0.057672374 -0.041392136 -0.06217308
0.047812425 0.0012957237 0.034820575 -0.12972605 -0.002296801 0.0078002596 0.037774447 -0.014121157
0.10066097 -0.05038524 0.011293142 -0.11512792 0.022860274 -0.028914554 -0.058355235 0.012837865
00000000: 9936 ea3c 376b 723d f0c8 0fbe 7da0 caba
00000010: 5add 42be 68c7 6f3d 522f 6c3c f3a2 9abd
00000020: c755 cebc 241e 35be 6310 31bc f408 093d
00000030: 6fa0 3dbe 4bb6 df3c 2f1e febd 9d41 8ebc
00000040: 9ccc e0bd 4a1e d439 241d a23c 86a6 c33d
00000050: dbd1 703d b2ef 1e3d df2f 15bd 5e28 5d3d
00000060: d0b8 87bd 4e9b 19be d12e 893c 842d fdbd
00000070: 1aaa 90bd f3fe e33c 99d1 3f3d f887 d53d
00000080: 6d27 02bd ad92 29be aede f43c 30ea 573c
00000090: eb46 f7bd 1cdd 12bd 10af c63b 4618 f13c
000000a0: fa39 9fbd 968f 71bd 46a1 2dbe c763 4bbe
000000b0: ef64 e53c 93b7 2abd 430d 57bd 73f5 1c3d
000000c0: 56b7 83bc d750 273d c321 a03c 239a 753d
000000d0: 0f6f 98bd 340d 023d 88dc ddbc d652 f13c
000000e0: 1fda 97bd ed38 28be 6544 3f3d 5915 493d
000000f0: 65e2 43be 2a37 4a3d 7b28 d4bd c42f 86bd
00000100: 5e86 3b3d ed65 0fbe 8079 e43c 198e 6ebd
00000110: fa35 4bbd 8656 543d d723 0ebd e7f8 4d3d
00000120: 8c2d 6a3d e31d a9bd a34f b9bd 262c d6bc
00000130: edd9 113d ec55 d9bd 080a 1dbe 4b32 c53c
00000140: f652 3b3d 017b 8abc 0812 28be 481b d4bc
00000150: 8e48 5abd da3a 2f3d 297c bcbc 18d7 823d
00000160: 7925 b5bc f632 023d 5f0f 433d 7a23 60bd
00000170: 679b a13d 47df f33d 2d23 13bd 2399 2c3d
00000180: f777 583d 146b 33bd e226 2d3d 9a32 883d
00000190: e3ef 043d 5e4a 5e3d a98e c93a 9b5f 0d3d
000001a0: 376a f2bc e427 77be cca4 8e39 c338 37be
000001b0: 6622 d2bd de39 6cbd cd8a 29bd 33a9 7ebd
000001c0: f6d6 433d 46d5 a93a 05a0 0e3d e8d6 04be
000001d0: ed85 16bb 5299 ff3b 61b9 1a3d 6d5c 67bc
000001e0: 5727 ce3d c160 4ebd df06 393c 30c8 ebbd
000001f0: 7845 bb3c 37de ecbc e605 6fbd e955 523c
