PythonChess/saved_models/chess_model_episode_300.pth (torch, 102696 bytes, 5 tensors)

fc1.weight f4 [128, 64]
00000000: 11bd 983d 4b11 84bd efd4 673e 14cd b0bb
00000010: d552 d73e 82a0 693e 53bb 47be 5d6b 943e
00000020: 58ed 073f 461a fdbe a9fd bebe c995 913e
00000030: 5787 a43e ac3f a7bd f5c6 afb9 2780 71be
00000040: 4aef 0bc0 b772 88bd 8f35 0cbf 3ba6 c2ba
00000050: 305c aebe 8626 623e 596f 893e cfc1 1b3e
00000060: d25d d9bc ccdf b23d b3c8 c0be 72bf 69bd
00000070: 703c dc3d bf2c cc3e 6488 8f3e 23d8 7b3f
00000080: 2244 df3d 346c 57bd 0259 a1bd c002 c53b
00000090: f435 fa3d 3293 a03d 58b9 223d 6860 353d
000000a0: a412 3d3d 7ea5 d4bd 6a24 ccbd 1a5b f93d
000000b0: 301c 79bc 40b1 093d 9eb8 b83d e072 a83d
000000c0: 928d e7bd 6678 f33d b6e4 a7bd 58e7 203d
000000d0: d8aa 353d 62f0 dbbd 9040 7e3c 482a f0bc
000000e0: 6803 5f3d 10eb 933c 32f8 f1bd 6015 fc3b
000000f0: ec28 cc3d 2089 e8bd f872 da3d 7093 7c3c
00000100: f915 fb3d 8b55 833e 67f8 b2bc bfbe dc3e
00000110: 8ba0 f23e 89bb 9b3e 98db 053f 9dfb b53d
00000120: 85fd 403d 1434 debd 056c 883e 1ca0 d0bc
00000130: bed9 24bd dd94 94bf 5b22 e9bd 5d8f a6bb
00000140: cc12 253e 8480 08c0 ba52 753e 8e47 393e
00000150: f03b 263d 6024 b63d 1d74 86be db74 163e
00000160: a27c 133e fc8f 14c0 07ee 0ebf aa8d 8ebf
00000170: a1ed 113b 43ec 8fbd 6079 293f 4b75 d33e
00000180: a065 01bd 90e4 77bd f040 313c ee30 d33d
00000190: 061a 99bd 840a 47bd 3e16 9cbd f07c 7cbc
000001a0: 48e2 413d 4027 893b 58c2 9f3c 923f c8bd
000001b0: 38c7 e53d 4e83 bebd 2e4a 9a3d 788e afbc
000001c0: d608 b43d 58d1 a9bc 5e19 c4bd 3ce2 823d
000001d0: 68ec 4d3d 90ef f13d 4083 dd3d 1cff dcbd
000001e0: 9c29 0e3d 9644 d4bd f8f0 f7bd 1084 51bd
000001f0: 3016 09bd d8ba 2cbd 80d6 3e3b 2a5a f1bd
00000200: a25d 003d 49bb 593d a7e5 ba3d f60f 283e
00000210: 7741 7b3e b9dc 87bc 3386 14bd e52b 9ebe
00000220: 7615 823d b7a4 503d f4d2 5cbd 2253 6cbf
00000230: c6aa 2d3f dd1b a63e 4846 263f 5e44 dbbd
00000240: 7d4f 963e 2baa 453d 7d69 88be 9293 2a3e
00000250: 0ad3 f53c a8b8 9bbe 602d ca3d e963 d3bc
00000260: 3f78 793e e9ed 1b3e d0f4 0dc0 9fa6 a43e
00000270: 7ac8 2cbe a412 e4bf f0c5 8fbf 716d 8bbf
00000280: be5a c63d 36c7 febd 00b6 6fbb 807d 8d3b
00000290: 1c37 6d3d a8a4 c63c 70be f0bd 98e0 7fbd
000002a0: 488f 4c3d e0c8 8e3d 3a68 ca3d 6818 f23d
000002b0: 90de 183c 18d3 393d 304c 67bd 6cb3 8b3d
000002c0: a0b0 fd3c ac42 b63d 6c59 b7bd 827e bc3d
000002d0: 286d 58bd ca12 de3d 7852 2cbd d866 9bbc
000002e0: 0075 e23b 2695 96bd 50f5 6d3c c0ae 6abb
000002f0: 7c3a dd3d de65 c7bd 96d0 f13d 8411 69bd
00000300: a9e5 63bd 8f13 333e 419b 773e 42c7 ca3d
00000310: 5223 803e ab85 18bd adfb 01bc ca81 65be
00000320: 6c2e 263f 281f 0fbe f4c4 dfbe 955a 63be
00000330: 2a6f 0c3f c90d d0be f06f 92bf 9bd9 74bc
00000340: d417 363c 389c b73d 6a95 a03b 3e73 963e
00000350: c71e c53d 9f83 1cc0 1f3d 7abf ae3c 37bd
00000360: 26f5 0fbf 2cd2 293e f926 c43e 23ab 2bbe
00000370: b134 adbf 1819 91bd 079f 3cbe 1ce2 2b3e
00000380: c071 54bb 60f4 a0bc 4490 fe3d 9acb cabd
00000390: 48d8 dbbd c22d bb3d 38c3 343d f298 dc3d
000003a0: a0c6 b23d 0863 28bd d412 8abd 060f a53d
000003b0: 14c7 f63d c0f4 95bb faeb eabd de70 8dbd
000003c0: 4820 d6bc 646d 903d 3484 46bd c4c7 06bd
000003d0: 0c5d 84bd 807e c2bd 28a5 62bd 6071 13bc
000003e0: b02c b2bd c083 3a3d 447a 573d ae22 b4bd
000003f0: 38b8 d13c ceb0 b53d d0be 65bc 90f8 10bc
0.074579366 -0.06448611 0.22639821 -0.005395541 0.42055383 0.22815135 -0.19505052 0.28988162
0.5309653 -0.49434108 -0.37302902 0.2843459 0.32134506 -0.08166441 -0.00033526836 -0.23584042
-2.18648 -0.06662505 -0.54769224 -0.0014850566 -0.34054708 0.22085008 0.26842764 0.15210651
-0.026533995 0.08734092 -0.3765312 -0.057067342 0.10753715 0.3987789 0.28033745 0.98376673
0.10901667 -0.052593425 -0.07878305 0.0060122907 0.12217322 0.07840575 0.03972754 0.044281393
0.046160355 -0.10383128 -0.09967883 0.12175579 -0.015204474 0.033616304 0.09019588 0.08225036
-0.11306299 0.118881986 -0.0819792 0.039283127 0.044352382 -0.10739209 0.015518323 -0.029317036
0.054446608 0.018056422 -0.118149176 0.007692978 0.09968743 -0.113542795 0.1066646 0.015416011
0.1226005 0.25651202 -0.021846963 0.43114278 0.4738811 0.30416515 0.522882 0.08885882
0.047116775 -0.10849777 0.26644912 -0.025466971 -0.040246718 -1.160793 -0.11383506 -0.005083008
0.16120452 -2.132844 0.23957339 0.18093702 0.040584505 0.08893657 -0.26260462 0.14693014
0.14403012 -2.321288 -0.5583195 -1.1136982 0.0022266882 -0.07027485 0.6620083 0.41300425
-0.031591058 -0.06052071 0.010818705 0.10312067 -0.07475667 -0.048594013 -0.0762143 -0.015410647
0.04733494 0.004185587 0.01950185 -0.0977775 0.112196386 -0.09302388 0.0753368 -0.02143024
0.08790748 -0.020729706 -0.09575151 0.06390807 0.050274283 0.11813271 0.108160496 -0.10790846
0.03470765 -0.10364644 -0.12106508 -0.051151335 -0.033468425 -0.042170376 0.0029119551 -0.117847756
0.031339295 0.053157125 0.09125834 0.16412339 0.24536692 -0.016584741 -0.036260795 -0.30892864
0.063517496 0.050938334 -0.053912118 -0.9231435 0.67838705 0.32443133 0.6495099 -0.107063994
0.2935752 0.048257988 -0.2664298 0.16657856 0.030007858 -0.3041432 0.09871936 -0.025804477
0.24362276 0.15227474 -2.2180672 0.32158372 -0.1687335 -1.7818189 -1.1232281 -1.0892774
0.096852764 -0.1244034 -0.0036576986 0.0043179393 0.057913885 0.024248436 -0.11755073 -0.06247005
0.04994133 0.069719076 0.09883161 0.118210614 0.009330407 0.04536733 -0.056469142 0.068213314
0.03096801 0.088994354 -0.08952603 0.09203817 -0.052838475 0.108434275 -0.042070836 -0.018969938
0.00691092 -0.073526666 0.014523819 -0.0035809726 0.10802171 -0.097362265 0.11807363 -0.05690147
-0.055638943 0.1748793 0.24180318 0.09901287 0.25026947 -0.03723685 -0.007933539 -0.22412792
0.64914584 -0.13976729 -0.4370495 -0.22202523 0.5485712 -0.40635517 -1.1440411 -0.014944459
0.0111140795 0.08965343 0.004900624 0.29384798 0.09625011 -2.4455335 -0.97749513 -0.044735603
-0.5623344 0.1658408 0.38310984 -0.16764502 -1.3531705 -0.070848644 -0.18420039 0.16785473
-0.0032416433 -0.019647777 0.1242986 -0.09902115 -0.10734612 0.09139587 0.044131488 0.107713595
0.08729291 -0.04111007 -0.067418724 0.08059506 0.1204969 -0.0045762956 -0.1147079 -0.06906293
-0.02613844 0.070521146 -0.048465922 -0.032905355 -0.0646306 -0.09496784 -0.055333287 -0.008999199
-0.0869993 0.045535803 0.052606836 -0.08795677 0.025600538 0.088716134 -0.014022544 -0.008848324

fc1.bias f4 [128]
00000000: e33a 95be f62e dcbe 30f7 8bbe ccb0 1dbf
00000010: 289d 22bf 5eec 06bf 976b 0abf f29a 62be
00000020: c4ff 05bf a1e9 19bf a2f4 15bf 6f1f 3abf
00000030: bc86 0cbf de2b 52bf 6387 c3be 0281 f9be
00000040: f630 b6be 28a2 0ebf d43c 1dbf 6afe 78be
00000050: 69d8 13bf a30a 38be bbe6 97be f48b 22bf
00000060: 82f5 0cbf aca0 c8be eedc 1abf a08a 84be
00000070: b07a 21bf 461f b7be 02c1 05bf 2b61 83be
00000080: 8f8a d5be e4d2 a8bf 198a 5fbf 7fe8 dcbe
00000090: ca14 71bf cd51 87be 7981 6ebf fbb3 06bf
000000a0: 24c7 dfbe 7bb1 52bf f5c5 9dbe 401c 2cbf
000000b0: f471 17bf 0e3d 69bf d11f 4cbd fd1c 90be
000000c0: 9dbe 40bf dc63 69bf 68f2 4bbf f79b 0bbf
000000d0: 2945 e2be 0a14 16bf 7e71 4ebf 9ade febe
000000e0: 4afb 77be 34d3 3cbf 5ae1 1abf 4647 15bf
000000f0: 3d93 f8bf d6d8 bdbe a373 65bf eded 06bf
00000100: cab5 32bf c05a 74be 18a8 80bf 5033 56bf
00000110: 8992 d2be 171f 41bf 0b23 44bd 6528 a4be
00000120: 9ddf 30bf 4c30 62be 402b a4bd 4ee6 a2be
00000130: 2657 f1be 0673 05bf c955 b0be 7c5c 03bf
00000140: 3e77 05bf 4488 21bf 2a83 20bf 3aa9 eabe
00000150: e7b3 acbe 6ffa e0be 2fac 28bf b7ad 51bf
00000160: d0f3 a7be e90e 11bf 5b75 62bf e9b3 a7be
00000170: 75e8 79bf 0005 f1be 8501 40bf 0b56 27be
00000180: bfaa a4be a3a0 68bf 7198 84be 1504 debe
00000190: d252 a5be d08b 33bf 8e87 aabf bd13 50bf
000001a0: 1674 57be 01ff 4dbf a827 42bf c3d2 a6bf
000001b0: 6e5a 52bf 414b 47bf 21c4 00bf 9a73 c3be
000001c0: e835 a4be 52e6 dcbe 67a7 f8be 90e7 e7be
000001d0: 30da 26be 0807 0ebf 232a d8bd 6822 12bf
000001e0: a215 04bf 6079 23bf 4d33 d4bf ea9e 8bbf
000001f0: 1699 2bbe aa24 2bbf 9293 32bf 2b42 3dbf
-0.2914649 -0.43004578 -0.27337027 -0.61597896 -0.6352105 -0.5270442 -0.5407042 -0.2212942
-0.5234339 -0.60122114 -0.58576405 -0.72704214 -0.5489309 -0.82098186 -0.3818923 -0.48731238
-0.3558423 -0.5571618 -0.6142094 -0.24315801 -0.5775209 -0.17972808 -0.2966822 -0.634948
-0.55062115 -0.39185083 -0.6049336 -0.25887012 -0.6307783 -0.35766047 -0.5224763 -0.2566007
-0.41707274 -1.3189359 -0.87320095 -0.4314613 -0.94172347 -0.26429597 -0.9316631 -0.5261838
-0.4370662 -0.82302064 -0.30815092 -0.67230606 -0.59158254 -0.9110879 -0.04983503 -0.28147116
-0.7529085 -0.91168 -0.7966676 -0.5453486 -0.4419339 -0.5862433 -0.80641925 -0.49779207
-0.24216953 -0.7375977 -0.6050011 -0.5831188 -1.9419934 -0.37079495 -0.8962957 -0.52706796
-0.6980864 -0.23862743 -1.0051298 -0.83672047 -0.41127422 -0.75438064 -0.047884982 -0.3206207
-0.69091207 -0.22088736 -0.08016062 -0.31816334 -0.471368 -0.52128637 -0.3444045 -0.51312995
-0.52135074 -0.6309855 -0.6270014 -0.45832235 -0.33731005 -0.43941066 -0.6588773 -0.8190569
-0.32803202 -0.56663376 -0.8846032 -0.32754448 -0.97620326 -0.47074127 -0.7500232 -0.16341417
-0.3216152 -0.9087011 -0.25897554 -0.4336249 -0.3228975 -0.7013521 -1.3322618 -0.8128012
-0.21040377 -0.8046723 -0.7584176 -1.3033069 -0.82169235 -0.77849203 -0.5029927 -0.38174134
-0.32072377 -0.4314447 -0.48565218 -0.45293856 -0.1629417 -0.5547948 -0.10554912 -0.5708375
-0.5159551 -0.6385708 -1.6578156 -1.0907872 -0.16757616 -0.6685282 -0.69756424 -0.7392909

fc2.weight f4 [128, 128]
00000000: ddce 14bf 398e 2abe 295f 3d3e a01a 3b3d
00000010: 9a62 093e 96ee 093d 599d 743e 3b87 ec3d
00000020: ed72 65be a5fa 90bf 02a3 31be 8e8d 84be
00000030: a822 f2bd af6a 4dbf fa90 b1be 03c1 f8bc
00000040: 1570 913d b5e8 b8be c27f 41be ffb6 2fbe
00000050: 0c18 3d3e ddad e7be f17a c4be 237e 123e
00000060: e96b 233e d63e 4abe b4e5 8b3e 4289 93be
00000070: f770 423e e26c 6fbf 4b4c c2be fc6b 48bf
00000080: fb89 c33d b762 5fbd 5248 83be 398f ebbe
00000090: 2798 ba3c 4f66 adbe 4ccb 8bbd 75b1 80bf
000000a0: 0115 2bbe 7910 77bf a333 81bd fd65 f5be
000000b0: 35ec aa3d 2497 0b3d a261 803e 395a a4be
000000c0: e042 e8be a4b3 92be 7c51 70be c4e8 113f
000000d0: 5eb1 f6bc f857 d3be f640 debd aafe 553d
000000e0: 51c7 01be aa6d 23bf 590d 9bbe 3f08 923e
000000f0: 2292 343e b3fa 61bf c80a 0fbf 0b78 313e
00000100: 3c2e 5b3d f0ed 25bf 7ef5 95bd 40b4 22bf
00000110: 3383 aabe 8a34 533e f19d f03d 6413 86be
00000120: 51d1 6d3d 0eef c13c 14a6 713e 9035 6ebf
00000130: 4e3c 45be 238c 213e 975d 0fbf dbad 8cbe
00000140: be74 ffbd 32cd 473d 14dd bfbe 8170 f3bd
00000150: 4b46 9cbf 9e1d ffba dd1c 80bd 0369 0ebf
00000160: 2352 b9be c467 a4be 572b 2bbe 8163 8abe
00000170: b241 3b3c cde8 4a3d 5502 adbe 7011 58be
00000180: 30f9 943d 82d9 87bd f313 8bbe c874 d2bd
00000190: ef6c c7bd 3599 d73c 56ab b1be 7450 ea3e
000001a0: 8fbe 7fbe b3ca e0be 6fa8 fe3d 16ec 4a3d
000001b0: 3ba7 a3bc 4163 2dbe 26bb a83e c14d ab3d
000001c0: 9391 d2bd d09b 4f3e 0aa7 273d bb4c 2c3e
000001d0: f262 9abe b9e8 b0bd 936e 39bd 3806 5fb9
000001e0: 0618 f33d 9d82 17be fd85 323d cd3d 95be
000001f0: 63ab 973d 45b2 463d ac2d 5abe 9586 8b3e
00000200: d8ec 1a3e ed5a 5abc 75e6 24bc 611a 08be
00000210: d4d6 71be 779f a8be 99e7 d2be aec1 65bf
00000220: 87fa 39bf 924b fdbe 3ce1 10bf 9570 a73b
00000230: 13b4 d23b 845c 793d 4f7c 7fbe 33f3 6cbe
00000240: 5793 91bd 3320 063d d568 31be 115d 633c
00000250: eaa1 e6be 9f87 283e bfdf 06bf 65e9 b53c
00000260: a93a b5bd e4a9 893d 683d a0be d7b1 723d
00000270: 1577 95be aad2 8cbe 084e 47bf 9a7d 8a3d
00000280: 1bb1 06bf 9833 babb 2ed3 64bd 3741 8abf
00000290: fbec 0ebe 7b9e 753e eac4 c2be 32ae 003e
000002a0: 812a ae3d 8d38 c3be 5a1d 553d 8f60 1a3d
000002b0: 6f80 b6be 50be a2be f554 8cbd 7fe6 f7bd
000002c0: 4a91 d0bd 793a d4bd 5671 da3c c8e7 863e
000002d0: 4cd6 ddbe b809 aebd 3d4f 14be a6de f9bd
000002e0: e1a1 54be 986d ac3d 40c4 523e 5bee e9be
000002f0: 17ca 743d 93cf e9bd 522c 19be fb44 09bf
00000300: 1570 5cbe f627 7bbe 8bb7 b8be a86b 1cbe
00000310: d210 a3be 0c5b e7be 10fa c5bd a4b4 84be
00000320: 4a1f fe3d 6c0e 74be fd32 9ebe 8cf5 13bf
00000330: 0e8d c43d 6b24 98bd e4e3 eabe 24d3 ed3d
00000340: 7131 05bf 2950 ea3a b4ea 31be 053f 9abf
00000350: e0bc e0be 13ee edbe 4402 e53d 1162 62be
00000360: e65f 64bc c9a8 b3bd 7197 7dbc 71b6 7abe
00000370: 9c41 26be 534e c4bd 04a8 69be f8c5 68be
00000380: 7001 acbe 03c7 963e f34f dabc f126 723e
00000390: 1044 a5bd d1d7 77be c4ee 2dbd 09d9 81be
000003a0: b4d8 b03d 774f 09bf 00fd 26be 50ba 86be
000003b0: 7a5f 0bbf 556f bfbd ca55 c83d 1648 21bf
000003c0: 4203 f4bd b544 dc3d f8c3 51bc 1513 1fbe
000003d0: 88d6 ecbd 0677 b23c 52ba 0ebd f4b3 713d
000003e0: 04e3 6fbe cc27 26be 981c cf3d 2178 cabb
000003f0: 79db 86be 33c7 ddbd 3db9 b03d bd66 e43d
-0.5812815 -0.16655816 0.18493332 0.04567969 0.1341652 0.0336748 0.23888148 0.11549231
-0.22407122 -1.1326491 -0.17347339 -0.25889248 -0.118230164 -0.8024091 -0.3468092 -0.030365473
0.07101456 -0.3611504 -0.18896392 -0.17159651 0.18466204 -0.45249835 -0.38375047 0.1430593
0.15959133 -0.19750533 0.27323687 -0.28815657 0.18988405 -0.93525517 -0.37948832 -0.7828977
0.09547802 -0.0545375 -0.25641114 -0.46007708 0.02277763 -0.33867118 -0.06825885 -1.0054156
-0.16707231 -0.9650951 -0.06308677 -0.47929373 0.08345834 0.034079686 0.25074488 -0.32100084
-0.45363522 -0.2865268 -0.23468584 0.569958 -0.030113872 -0.41278052 -0.10852234 0.05224482
-0.1267369 -0.6383921 -0.3028362 0.28521916 0.1763387 -0.8827316 -0.55875826 0.17330949
0.05351089 -0.6481619 -0.073222145 -0.6355629 -0.33303222 0.20625511 0.11748875 -0.2618667
0.058060948 0.02367356 0.2359851 -0.9305048 -0.19261286 0.15776114 -0.5600218 -0.2747639
-0.12473439 0.048779674 -0.37473357 -0.11886693 -1.2208952 -0.0019463783 -0.06255505 -0.55628985
-0.36195478 -0.32110417 -0.16715752 -0.2702904 0.011429237 0.049538422 -0.33790842 -0.21100402
0.07274091 -0.06633283 -0.27163658 -0.102761805 -0.09737574 0.026318172 -0.3470103 0.45764506
-0.24975036 -0.43904647 0.1243447 0.049541555 -0.019977203 -0.16932394 0.32955283 0.0836444
-0.10281672 0.20274282 0.040930785 0.16826145 -0.30153614 -0.08638138 -0.045271467 -0.00021269254
0.118698165 -0.14795919 0.043584812 -0.29148713 0.07405736 0.048509855 -0.21306485 0.27251115
0.15129411 -0.013327342 -0.010064711 -0.13291313 -0.23617107 -0.32934162 -0.4119232 -0.89748657
-0.726479 -0.49471718 -0.5659368 0.0051098564 0.006430158 0.060879245 -0.24949764 -0.23139648
-0.07108181 0.03274555 -0.17325146 0.013877169 -0.45045406 0.16457985 -0.5268516 0.022206018
-0.08849079 0.06721857 -0.3129685 0.059251633 -0.29192415 -0.27504474 -0.7785344 0.06762238
-0.5261399 -0.00568242 -0.05586546 -1.0801152 -0.13957588 0.23986237 -0.38040859 0.1256645
0.08504201 -0.38129082 0.052029945 0.03768974 -0.35644862 -0.31785822 -0.06852142 -0.121045105
-0.10183962 -0.10362715 0.02666537 0.2634871 -0.43327558 -0.084979475 -0.14483352 -0.1220067
-0.20764877 0.08419341 0.20582676 -0.45689663 0.05976304 -0.11416545 -0.14958313 -0.5362088
-0.21527131 -0.24526963 -0.36077532 -0.15275443 -0.3184877 -0.4518665 -0.09666836 -0.25919068
0.12408312 -0.23833627 -0.30898276 -0.5779655 0.095972165 -0.07428821 -0.45876992 0.116125375
-0.52028567 0.0017876673 -0.17374688 -1.2050482 -0.438941 -0.464707 0.11182073 -0.22107722
-0.01393888 -0.087724276 -0.015478001 -0.24483658 -0.16235965 -0.09585252 -0.22817999 -0.22731769
-0.33594847 0.2944871 -0.02664945 0.23647667 -0.080696225 -0.24203421 -0.042464033 -0.25360897
0.08635083 -0.5363688 -0.1630745 -0.2631402 -0.5444256 -0.09347407 0.09781988 -0.6300062
-0.11914684 0.10755292 -0.01280307 -0.15534623 -0.11564356 0.02178527 -0.034845658 0.059009507
-0.23426443 -0.16226119 0.10112876 -0.0061788713 -0.2633932 -0.1082901 0.086290814 0.11152408

fc2.bias f4 [128]
00000000: 7f61 103f 59a3 553d 891b be3d 2d91 ccbe
00000010: 057f d1bd 0e0f bbbe 703f 79be 0f5f 33be
00000020: 8181 91be 0ddf 00bf aeff 8abe 6dce 103f
00000030: 0a57 0d3e 6e50 a03b 42e9 7dbe 122d 9fbe
00000040: e38e babe 74cd 9bbe 91c4 92be 15ff 5ebe
00000050: 5441 57be ab20 07bd 7e2c 00bf 3753 673f
00000060: 70cb 90be f5df d2be be3d a8be 9378 babd
00000070: 2045 623e 6b60 8cbe a582 7b3e 0918 b5be
00000080: b04a e2be 468a 8abd bfb2 723f 456f 9a3e
00000090: 2bb8 93be 75ed bbbe 4ded 8dbe 6a1b 1e3f
000000a0: 31c2 71be 0006 0abe 1a91 aabd 7e4f a7be
000000b0: d322 6d3f b3fd c5bd c745 233c ad9b 883f
000000c0: 716c afbe 5f84 c53e 7833 bb3f 01a7 f23d
000000d0: 84d0 a2be 31a6 f23e a7e1 5cbc 43d5 743e
000000e0: ca96 a9be 01e0 b9be 896b 933e 9e34 86be
000000f0: 2652 cbbe 8d3b bf3d 4bf8 f4bd c60c 36be
00000100: 3b75 a2bd e904 cabe 6ec8 1d3e 2b5b a4be
00000110: fd98 54be a9b7 62be 53d3 a5bd 7ee5 7f3e
00000120: 4b48 03be aab4 dbbd c036 9b3e 6c0e 80be
00000130: 30be cf3e b323 54be 676d a7bd 5b2d 8a3e
00000140: 8906 b63d 90ab edbd 30ca c4be 19b4 8fbe
00000150: e994 373e e9ed 073f 0483 e5bd 1d9f 443f
00000160: c827 7cbe 2729 60be 7e8f 633f 47bf 23be
00000170: 5c9c 143e 94b5 88be e6d2 81be 9959 373f
00000180: 1ceb bc3e f0c5 e2be 3a20 2a3f 9dff cb3c
00000190: 93b6 b33d 5a11 013f d53e 88be cd9c 1b3f
000001a0: 841a 9cbd d171 b1be 4904 e0be 6f75 dabe
000001b0: 84ae b8be 3240 64be 8be4 50be 6df0 7abe
000001c0: aa97 95be fc6c f63e dd0c 2ebe b85a 23be
000001d0: f90d 84be 872e 8ebe 26ab 343f c6bb 8ebd
000001e0: 3879 b7be f3a2 adbe 2fc7 c9be ac82 1c3d
000001f0: 4e96 ca3e 5d48 5d3e fb2f 88be f4af 49be
0.5639877 0.052157734 0.09282596 -0.3995451 -0.10229305 -0.36534923 -0.24340606 -0.1751673
-0.28419116 -0.5034035 -0.27148193 0.5656498 0.13802734 0.0048924005 -0.24796012 -0.31089073
-0.3643714 -0.30430186 -0.28665593 -0.21776994 -0.21021014 -0.03299014 -0.5006789 0.9036135
-0.2828021 -0.4118649 -0.32859606 -0.09105029 0.22096682 -0.2741731 0.24561556 -0.353699
-0.44197607 -0.06764655 0.94803995 0.30163017 -0.28851447 -0.36704603 -0.2772011 0.6176058
-0.23609234 -0.13478851 -0.08328457 -0.32677835 0.9263126 -0.0966753 0.009965367 1.0672508
-0.34262422 0.38577554 1.4625082 0.1184826 -0.3179971 0.4739242 -0.013481534 0.23909478
-0.33122855 -0.36303714 0.2879298 -0.2621202 -0.39711112 0.0933753 -0.119614206 -0.1777831
-0.07932516 -0.3945687 0.15408489 -0.32100806 -0.20761485 -0.22140373 -0.080969475 0.24989888
-0.12820546 -0.10727818 0.30315208 -0.25011003 0.4057479 -0.20716743 -0.08175164 0.26987728
0.08887965 -0.116049886 -0.38435507 -0.2806709 0.17927898 0.530974 -0.1120663 0.7680529
-0.2462455 -0.21890698 0.88890827 -0.15990935 0.14512771 -0.26701033 -0.25356215 0.7162109
0.36898124 -0.4429164 0.66455424 0.02490216 0.08775058 0.504171 -0.26610437 0.60786134
-0.07622245 -0.34657148 -0.4375327 -0.4266772 -0.36070645 -0.22290114 -0.20399682 -0.24505778
-0.29217273 0.48130023 -0.16997094 -0.15952575 -0.2579191 -0.27769873 0.7057365 -0.06969409
-0.3583467 -0.33913383 -0.39409778 0.038210556 0.39567798 0.21609636 -0.26599106 -0.19696027

fc3.weight f4 [1, 128]
00000000: 04c6 463d c5b2 813d 9f36 30be 7da0 caba
00000010: 032e 58be f398 f13d 1009 7b3d 3478 62bd
00000020: c755 cebc 8b2b 32bd 6310 31bc b270 473d
00000030: 9a0b 5ebe adc2 c83d 1319 2bbe 2f65 0d3d
00000040: e294 10be db99 ebbc 241d a23c 4f4c 833d
00000050: 5875 ab3d 79e2 3b3d cb4e 8abd 0bd2 4c3d
00000060: 0bc4 f6bc 4b5e 86bd 3ce7 75bc f43f 35be
00000070: 1175 f7bd a485 fb3d b3bd 9d3c c3d4 303d
00000080: 3fa8 94bd d303 75be f9f6 153d 0a41 253d
00000090: 610d a8bd 28f7 0bbe 02b1 1c3e f861 3b3d
000000a0: 5761 dfbd 4c1f 3fbd 46a1 2dbe 97f3 b6bd
000000b0: bfc3 c93c cf63 17bd f645 21be 9910 363d
000000c0: 0181 803c cc5b f83c 4594 b63c cca7 323d
000000d0: 1830 debd f7f9 0c3d 263b 883d d467 903d
000000e0: 9c2e 41bd a7a3 83bd e6af 643d 38d3 8bbc
000000f0: a9a0 76bd 0316 2e3d 4326 ebbd 0839 30be
00000100: 6b88 b83d 2734 87bd b6b9 3e3d 5d24 55bd
00000110: 8af8 39bd fe29 263e be8b 06be ff42 3d3d
00000120: dfa4 713d fab3 b1bd 6ffa 94bc 5714 653b
00000130: 393e 3e3d 098c d7bc 94a5 23be 2840 ee3c
00000140: b1e7 333d 7aac c93a 01fa 09be 41b8 9dbd
00000150: 9697 89bd 9d42 2d3d 4fee cbbd 5654 943d
00000160: 7925 b5bc e50b a03d 1d10 483d d122 c8bd
00000170: d961 213d c21c 223e 639e 3ebc 5ad1 3b3d
00000180: 1dd2 683d 1d32 c9bd d294 313d 9d05 8c3c
00000190: af1f 6a3d 7333 0c3d 878f abbb c60a 503d
000001a0: ec7c 8dbd b3e7 93be 46ae febd de0b 53be
000001b0: a365 65bd 49a0 3cbd cd8a 29bd 93e8 0dbd
000001c0: 3abe 083d 2ebd 503d e02b 263d e9b3 fabd
000001d0: 6873 84bc df33 c4bc c7ee 003d 3d30 efbc
000001e0: 2927 8b3d 4a49 01be f794 343d 4a34 8ebd
000001f0: 506b b03c f1f8 e93c 1191 90bd e955 523c
0.048528686 0.06332926 -0.17208336 -0.0015459206 -0.21111302 0.11796751 0.06128794 -0.055290416
-0.025187386 -0.043498557 -0.01080713 0.04869146 -0.21684113 0.098027565 -0.16708784 0.034520324
-0.14119294 -0.028759887 0.019789286 0.06411039 0.08371991 0.045870278 -0.0675331 0.050005
-0.030122777 -0.06560954 -0.015008744 -0.17700177 -0.120828755 0.12281349 0.019255495 0.043171655
-0.07258653 -0.2392724 0.036612485 0.04034523 -0.08205677 -0.13668501 0.15301898 0.045747727
-0.10907238 -0.046660706 -0.16956052 -0.0893318 0.024629472 -0.03696042 -0.15749344 0.044449423
0.015686514 0.03031721 0.022287497 0.043617055 -0.10849017 0.034418073 0.06651907 0.07051054
-0.04716359 -0.064276986 0.055831812 -0.01706849 -0.06021181 0.04250146 -0.11481907 -0.17209256
0.09010395 -0.06601744 0.046563827 -0.05203663 -0.04540304 0.16226956 -0.13139245 0.04620647
0.058995124 -0.08676906 -0.018185822 0.003495475 0.04644606 -0.026311891 -0.15981132 0.029083326
0.04392213 0.0015386485 -0.13474275 -0.07701159 -0.06718366 0.042299856 -0.09957563 0.07242648
-0.022112595 0.07814769 0.04884349 -0.09772266 0.039399955 0.15831283 -0.011634442 0.04585395
0.056841005 -0.098240115 0.043354817 0.01709252 0.057159122 0.034228753 -0.0052356157 0.050791524
-0.069085926 -0.2888771 -0.12435584 -0.20609996 -0.05600513 -0.046051297 -0.041392136 -0.03464563
0.03338454 0.050961666 0.040569186 -0.122413464 -0.016168311 -0.023950515 0.031477716 -0.029197806
0.067945786 -0.12625614 0.044087376 -0.06943567 0.021535546 0.028561087 -0.07058919 0.012837865
