PythonChess/saved_models/chess_model_episode_final.pth (torch, 102716 bytes, 5 tensors)

fc1.weight f4 [128, 64]
0	0x3dc9136b	0.09818157
1	0x3a1e3983	0.00060357916
2	0xbc51a9a6	-0.012796795
3	0xbd0d5ff4	-0.034515336
4	0xbd083f27	-0.03326335
5	0xbc97a8cd	-0.018513108
6	0xbd861e96	-0.065488026
7	0xbd2aa787	-0.041663673
8	0xbe8abbc7	-0.27096388
9	0x3d0652d6	0.032793842
10	0xbe4b7760	-0.19869757
11	0xbd6d693e	-0.057961695
12	0xbd365640	-0.04451585
13	0x3d7946e2	0.060858615
14	0x3d83e178	0.06439489
15	0x3dd62776	0.10456745
16	0x3d63ce06	0.0556164
17	0xbdccbe39	-0.099972196
18	0xbc854a4d	-0.016270781
19	0x3cd9be1a	0.026579905
20	0x3cd42515	0.025896588
21	0xbd11a750	-0.035559952
22	0xbccf84ff	-0.025331972
23	0x3e24254d	0.16029854
24	0xbda7ddd9	-0.08196611
25	0x3d9618d6	0.07328956
26	0xbd849280	-0.06473255
27	0x3bfa65aa	0.007641514
28	0xbe10e000	-0.14147949
29	0xbe76b6bf	-0.2409315
30	0xbe488fbd	-0.19586082
31	0x3dd97da4	0.10619667
32	0x3d9723be	0.07379864
33	0x3d94ebca	0.07271536
34	0xbd76ed3c	-0.060284838
35	0xbcac2828	-0.021015242
36	0x3ca47788	0.020076528
37	0xbd83c386	-0.064337775
38	0xbdb61d4e	-0.08892308
39	0xbc9f31c8	-0.019432917
40	0x3d84ff9c	0.06494066
41	0xbdac5030	-0.08413732
42	0x3db84f52	0.08999504
43	0x3d41cdc8	0.04731539
44	0xbd3e4910	-0.046456397
45	0x3dda6262	0.10663296
46	0xbb04f8c0	-0.0020289868
47	0x3dc61a4a	0.09672983
48	0xbdb7e036	-0.08978312
49	0xbdbd66c0	-0.09248114
50	0xbc804360	-0.015657127
51	0x3dd80bf8	0.10549158
52	0x3d93a38e	0.0720893
53	0xbd9c7100	-0.076387405
54	0xbd4b2c6c	-0.04960291
55	0x3df6d73c	0.120527714
56	0x3dd0fc4e	0.10204373
57	0xbdd9fe28	-0.106441796
58	0xb62b0000	-2.5480986e-06
59	0xbd1a8d64	-0.037732497
60	0xbd35ffa8	-0.044433266
61	0x3d54bbfc	0.05193709
62	0xbc5daf50	-0.013530567
63	0x3cedec50	0.029043347
64	0x3e4353b7	0.19074903
65	0x3d14be52	0.036314316
66	0x3c591af4	0.013251055
67	0x3e0d4763	0.13796763
68	0xbda5ac91	-0.08089555
69	0x3de23062	0.110443845
70	0x3e2025e7	0.15639459
71	0x3d755bcb	0.059901994
72	0xbd936078	-0.07196134
73	0x3df5c648	0.1200071
74	0x3d870f16	0.06594674
75	0xbd6d23e4	-0.057895556
76	0xbd9d5920	-0.07683015
77	0xbda24ea0	-0.07925153
78	0xbd1d669c	-0.038427934
79	0xbe939f0d	-0.28832284
80	0xbea8f148	-0.32996583
81	0xbf39a39b	-0.7251527
82	0xbcccba19	-0.024991082
83	0x3ddd511d	0.10806487
84	0x3de7b0d5	0.11313025
85	0x3e46bd95	0.19408257
86	0x3e3f2087	0.18664752
87	0xbe812949	-0.2522681
88	0x3d96ca70	0.07362831
89	0x3db8ae47	0.09017616
90	0xbe5df577	-0.21675669
91	0xbc8fff3c	-0.01757776
92	0xbf1709ae	-0.58999145
93	0x3c1c0fbe	0.009525238
94	0xbe840ad3	-0.25789508
95	0xbe9f8fab	-0.31164297
96	0xbddcf644	-0.10789159
97	0xbde173bc	-0.11008403
98	0x3dbb6fa6	0.091521546
99	0xbd94378e	-0.07237159
100	0x3d8edddc	0.0697591
101	0x3dfd2328	0.12360221
102	0xbcb47658	-0.022029087
103	0x3d90d776	0.07072346
104	0xbdd69eb2	-0.104794875
105	0x3de37858	0.11106938
106	0xbda30bd6	-0.07961242
107	0xbdb1def4	-0.08685103
108	0xbdfb67ae	-0.12275635
109	0x3df5e1a4	0.12005928
110	0xbd5bf5a0	-0.053701043
111	0xbda2c99c	-0.0794861
112	0xbd0dd7ac	-0.03462951
113	0x3bc53fa0	0.0060195476
114	0xbdd1f43a	-0.10251661
115	0xbdfe6ef6	-0.12423508
116	0x3de23164	0.11044577
117	0xbcdc34e8	-0.026880696
118	0x3df7dc52	0.1210257
119	0x3dc14ec0	0.094388485
120	0xbdc2cd6c	-0.09511837
121	0x3d628750	0.055304825
122	0x3d2f1460	0.04274404
123	0x3dc0ef1c	0.094206065
124	0xbddb9168	-0.107210934
125	0x3cd4ae70	0.025962085
126	0xbb8e44e0	-0.0043417066
127	0x3c7fd3e0	0.01561448
128	0xbd31c84c	-0.04340391
129	0xbd51d878	-0.05123183
130	0x3cd43d3d	0.025908107
131	0x3d8d230d	0.06891451
132	0xbd3ac9af	-0.045602497
133	0x3b109a61	0.0022064673
134	0x3da3ba3c	0.07994506
135	0xbd3dc9a8	-0.046334893
136	0xbcf64aca	-0.03006496
137	0x3d00a27a	0.03140495
138	0x3e0fd111	0.14044596
139	0xbcb26a7c	-0.021779291
140	0x3d899e49	0.067196436
141	0xbe6e5d15	-0.23277695
142	0xbd4052eb	-0.046954077
143	0xbec83ef5	-0.39110532
144	0x3dbdd1e7	0.09268551
145	0x3da865fd	0.08222578
146	0x3da45b36	0.080252096
147	0xbda613c7	-0.08109241
148	0x3c5192b4	0.012791324
149	0xbee04103	-0.437996
150	0xbc1bac1a	-0.009501481
151	0x3ca5662d	0.020190323
152	0xbdd51daa	-0.104060486
153	0xbcbac9de	-0.022801336
154	0xbc285803	-0.01027489
155	0x3dd8e66b	0.10590824
156	0xbd9c1369	-0.0762089
157	0x3c86636c	0.01640483
158	0x3d759b41	0.059962515
159	0xbc8112d6	-0.015756052
160	0xbd2c3b54	-0.042048767
161	0xbdea679c	-0.11445543
162	0xbc94a8a8	-0.018146828
163	0xbd305970	-0.043054044
164	0x3db92234	0.09039727
165	0x3c5c3de0	0.0134424865
166	0xbcbfe510	-0.023424655
167	0xbdbcf2d8	-0.09226006
168	0xbdd321d8	-0.103091896
169	0xbc680070	-0.014160261
170	0xbd996d32	-0.074915305
171	0x3b44cd00	0.0030029416
172	0xbd97d7de	-0.0741422
173	0x3b700fc0	0.0036630481
174	0xbd923f9c	-0.07141039
175	0xbd0374fc	-0.032093987
176	0x3d72db18	0.059290975
177	0xbd3bdbb4	-0.045863822
178	0xbd876bd8	-0.066123664
179	0xbdd93578	-0.106059015
180	0x3db5c672	0.08875741
181	0x3acd8e00	0.0015682578
182	0x3dd40a32	0.10353507
183	0x3df1a4e2	0.11799027
184	0xbdf30fae	-0.11868225
185	0xbd8df94a	-0.06932314
186	0x3b5a9580	0.003335327
187	0xbdc722bc	-0.09723422
188	0x3dbe2eba	0.09286256
189	0xb8630000	-5.4121017e-05
190	0xbd23881c	-0.039924726
191	0x3ca7e4e8	0.020494893
192	0x3d2d91cb	0.042375367
193	0xbd233953	-0.03984959
194	0xbd7bfb21	-0.061518792
195	0x3d6bb5df	0.057546493
196	0x3cf5b052	0.029991303
197	0xbc5bd4d9	-0.013417446
198	0x3d517a6f	0.051142152
199	0xbce7fea6	-0.028319668
200	0x3d692016	0.056915365
201	0xbd86c192	-0.06579889
202	0xbea133fc	-0.31484973
203	0xbeaf9bb9	-0.34298494
204	0x3c62bc1d	0.013838795
205	0xbc8b3fe1	-0.016998233
206	0x3d8069d8	0.06270188
207	0x3c2f8158	0.01071199
208	0xbda0b11e	-0.078462824
209	0xbebf78d8	-0.37396884
210	0x3c29a663	0.010354611
211	0xbdb09131	-0.08621443
212	0xbd0c5ab7	-0.0342662
213	0xbd8ca799	-0.06867904
214	0xbef1c43b	-0.47220024
215	0xbd6c4134	-0.05767937
216	0xbd63a789	-0.055579696
217	0x3d0336de	0.032034747
218	0xbdcfa029	-0.1013797
219	0xbcd416ff	-0.025889872
220	0x3cb52e77	0.022116883
221	0xbcf4bef1	-0.029876204
222	0xbe610857	-0.21975838
223	0xbd7de91c	-0.06198989
224	0xbc93bde0	-0.018034875
225	0x3dd5dba2	0.10442282
226	0xbd945756	-0.072432205
227	0x3c7d9920	0.015478402
228	0x3d910448	0.07080895
229	0xbdd1ecc0	-0.102502346
230	0xbd9c639a	-0.07636185
231	0x3cbfd9a0	0.023419201
232	0x3ca6fc40	0.020383954
233	0xbd4a29d4	-0.049356297
234	0xbd43da8c	-0.047815844
235	0xbdabfe1c	-0.08398077
236	0x3d9295f2	0.07157506
237	0x3cc6a268	0.024247363
238	0xbde20ee4	-0.110379964
239	0x3ce95ce8	0.028486684
240	0xbccb0e30	-0.024787039
241	0xbd8cd464	-0.06876448
242	0xbd9f8aa0	-0.077901125
243	0x3cba7788	0.022762075
244	0x3d84ea3e	0.06489991
245	0x3d96a4d4	0.07355657
246	0xbc445820	-0.011983901
247	0xbaec0a80	-0.00180085
248	0xbd844b52	-0.06459679
249	0x3cdc5188	0.026894346
250	0xbdbce5f4	-0.092235476
251	0xbd34002c	-0.043945476
252	0xbd498150	-0.049195588
253	0x3d91403a	0.07092328
254	0x3d962e6c	0.07333073
255	0xbc4229e0	-0.011850804

fc1.bias f4 [128]
0	0x3c17927a	0.009251231
1	0xbe050692	-0.12990788
2	0xbe329058	-0.17437875
3	0xbe2f2a69	-0.17106022
4	0x3d74ecf0	0.059796274
5	0xbd9f16fe	-0.07768057
6	0xbcd04cc7	-0.025427235
7	0xbdeacf86	-0.11465363
8	0xbd957abe	-0.07298802
9	0xbe31d670	-0.17366958
10	0x3c3135ad	0.01081602
11	0xbca7d5cd	-0.02048769
12	0xbd758770	-0.059943616
13	0xbcb91e7a	-0.02259754
14	0xbd07c654	-0.033148125
15	0xbdd37ada	-0.103261665
16	0xbb8c40dd	-0.0042801932
17	0xbd7dff0f	-0.06201082
18	0x3ca9475d	0.020663911
19	0xbc4082cb	-0.0117499335
20	0xbd297648	-0.041372567
21	0xbe01844c	-0.12648124
22	0xbe4ab315	-0.19794877
23	0xbe1b2faa	-0.15154901
24	0xbe3f42b2	-0.18677786
25	0xbd8f53b0	-0.06998384
26	0xbe048039	-0.12939538
27	0x3d8a6250	0.06757033
28	0xbc878ebd	-0.016547555
29	0xbe191020	-0.14947557
30	0xbdaad49d	-0.08341334
31	0xbe370c9e	-0.17875907
32	0xbd81172a	-0.06303246
33	0xbde06081	-0.10955907
34	0x3cecf293	0.028924262
35	0x3d86791d	0.06566069
36	0xbdd02cc6	-0.1016479
37	0xbd5c1f64	-0.053740874
38	0xbe0cfa50	-0.13767362
39	0x3c3c5a15	0.011496087
40	0xbcb19574	-0.02167771
41	0xbd805c5e	-0.06267618
42	0xbe25ea5d	-0.16202684
43	0xbcb84940	-0.022495866
44	0xbe1bc4ac	-0.15211743
45	0xbdde851e	-0.10865234
46	0x3cd261b6	0.025681358
47	0xbbfc5e48	-0.007701669
48	0x3d2fd450	0.042927086
49	0xbc3d1c46	-0.011542385
50	0xbe149b3e	-0.14512345
51	0x3cc57c18	0.024107024
52	0xbdd68131	-0.1047386
53	0xbd71923f	-0.05897736
54	0xbdba0ccc	-0.09084472
55	0xbdbca34e	-0.092108354
56	0xbe0d5a9c	-0.13804096
57	0xbd617622	-0.0550443
58	0xbe02092a	-0.12698808
59	0x3dede92b	0.11616739
60	0xbca21d56	-0.01978938
61	0x3d39f5ca	0.04540042
62	0xbe0fea1a	-0.14054146
63	0xbd773d16	-0.06036099
64	0xbdb1a18c	-0.08673391
65	0xbdada271	-0.08478249
66	0xbdebab1c	-0.11507246
67	0xbd7b2a37	-0.061319556
68	0x3cb15a6c	0.021649562
69	0xbde15daa	-0.11004193
70	0x3bd14f33	0.006387615
71	0xbdb9f501	-0.09079934
72	0xbe1dfc1a	-0.154282
73	0xbdcefa17	-0.101062946
74	0xbe0decd4	-0.13859874
75	0xbca2488f	-0.01980999
76	0x3d0724a6	0.032993935
77	0xbbae06f0	-0.0053108856
78	0xbe5925ec	-0.21205872
79	0xbe1c2425	-0.15248163
80	0x3cb0efe1	0.021598758
81	0x3cc41766	0.023936938
82	0xbdcc9462	-0.09989239
83	0xbb4d8666	-0.0031360625
84	0xbe2e35c6	-0.170127
85	0xbdf2f810	-0.118637204
86	0xbdaedfbd	-0.085387684
87	0x3d70dd38	0.05880472
88	0xba44b264	-0.0007503389
89	0xbdd107c4	-0.10206559
90	0xbc2eed07	-0.010676629
91	0xbe2baa22	-0.1676412
92	0xbd799e4e	-0.060941987
93	0xbdee97d7	-0.11650055
94	0x3d349879	0.04409072
95	0xb71d1ab4	-9.3641465e-06
96	0x3dc0d067	0.094147496
97	0xbe2335a1	-0.15938427
98	0x3d802ce2	0.06258561
99	0xbcfa2f4d	-0.030540133
100	0x3c94270c	0.018085025
101	0x3dc29c7f	0.095025055
102	0xbd79e492	-0.061008997
103	0xbd112dba	-0.035444
104	0xbe2f53cf	-0.17121814
105	0xbc231460	-0.009953588
106	0xbd22ddd3	-0.03976233
107	0xbdc1c1e1	-0.094608076
108	0xbd141e26	-0.036161564
109	0xbe13bf14	-0.1442836
110	0xbd827917	-0.06370752
111	0xbe0c2359	-0.13685359
112	0x3bcc7ef8	0.006240722
113	0xbd7cd45c	-0.06172596
114	0xbd0bc635	-0.03412457
115	0xbe1fc495	-0.15602334
116	0xbd8a7ba9	-0.067618676
117	0xbd15c25e	-0.036562316
118	0xbda550ed	-0.08072076
119	0xbde8884b	-0.11354121
120	0x3d591670	0.052999914
121	0xbb370d02	-0.0027931337
122	0x3c43c4ba	0.011948759
123	0x3aaefbde	0.0013350209
124	0xbd92c325	-0.07166127
125	0xbda7098b	-0.08156117
126	0xbe2ee8e5	-0.1708103
127	0xbd520803	-0.05127717

fc2.weight f4 [128, 128]
0	0x3ce8bb30	0.02840957
1	0x3d30ce4c	0.04316549
2	0xbd0312db	-0.032000404
3	0xbd24c010	-0.040222228
4	0xbbd8dddd	-0.006618245
5	0xbcafc795	-0.021457473
6	0xbd6c12df	-0.057635184
7	0x3cb3f39c	0.021966748
8	0x3c9fd14e	0.019508984
9	0xbc9436e5	-0.018092582
10	0xbb9edfe9	-0.0048484695
11	0xbd45eae4	-0.048319712
12	0x3d243c58	0.04009661
13	0xbcfb50ab	-0.030678114
14	0xbc1c51d0	-0.00954099
15	0x3c8b0e1e	0.016974505
16	0x3d090793	0.03345449
17	0x3dd1d32f	0.10245358
18	0xbda2c831	-0.0794834
19	0xbcd25ddd	-0.025679523
20	0x3b1ae052	0.002363224
21	0x3d71418e	0.05890041
22	0xbdc053e2	-0.093909994
23	0xbdf21cfc	-0.118219346
24	0xbd86c2d6	-0.06580131
25	0x3c0d7207	0.008633143
26	0x3c6a99ba	0.014318878
27	0x3aa15dc2	0.0012311267
28	0x3d4654c6	0.04842069
29	0xbd5210a5	-0.051285405
30	0xbd8cf40c	-0.06882486
31	0xbdb601b9	-0.08887047
32	0xbdc6536f	-0.096838824
33	0xbd8dc49c	-0.06922266
34	0xbd6051ff	-0.054765698
35	0xbd2a69bf	-0.041604754
36	0xbd16d181	-0.036820892
37	0xbd2187ef	-0.039436277
38	0xbcc992b1	-0.02460608
39	0xbdce45a1	-0.100718744
40	0xbd7492c3	-0.059710275
41	0xbd78a04f	-0.060699757
42	0x3d40403b	0.046936255
43	0x3d009b2c	0.031397983
44	0x3c9c20b9	0.019058572
45	0xbdc30bc0	-0.095237255
46	0xbd14a46c	-0.036289617
47	0xbdb94a7d	-0.09047411
48	0x3bfe1ee3	0.007755147
49	0x3d0d3950	0.034478486
50	0x3d2fdd93	0.04293592
51	0xbca50144	-0.020142205
52	0x3cadc4fd	0.021212095
53	0x3d1c3f91	0.03814656
54	0xbcb7c870	-0.022434443
55	0xbdbce7cc	-0.09223899
56	0xbd42c2cf	-0.047549065
57	0xbda8a0e9	-0.08233816
58	0xbb4f7eaf	-0.0031661203
59	0xbd233603	-0.03984643
60	0x3d1e060b	0.03857998
61	0x3d4a8215	0.049440462
62	0xbd91f631	-0.071270354
63	0xbd9d1563	-0.07670095
64	0x3e22703f	0.15863131
65	0xbd3f10a7	-0.04664674
66	0xbd9cf789	-0.07664401
67	0xbdb97ab0	-0.09056604
68	0x3bd1a79e	0.0063981554
69	0xbd88ef51	-0.06686271
70	0xbd61bc5b	-0.05511127
71	0xbcec97b2	-0.028880928
72	0xbdf69ece	-0.12042008
73	0x3ca7b399	0.020471381
74	0x3d09182f	0.03347033
75	0xbcd432bb	-0.025903096
76	0xbd670030	-0.056396663
77	0x3d9803c2	0.07422592
78	0x3bd43fee	0.0064773476
79	0x3c82ae11	0.015952142
80	0xbd1f4b42	-0.03889013
81	0x3d0942d0	0.033510983
82	0xbc846aa4	-0.016164131
83	0xbd870c0a	-0.06594093
84	0xbdc1c3bd	-0.09461162
85	0x3d7ba227	0.061433937
86	0xbd2bb4c9	-0.041920457
87	0xbdc6eea7	-0.09713488
88	0xbd620b66	-0.05518665
89	0xbda0fe70	-0.0786103
90	0x3d1f908b	0.038956206
91	0xbd917078	-0.0710153
92	0xbd4b0319	-0.0495635
93	0xbd92cbe8	-0.07167798
94	0x3cb6ad5e	0.022299465
95	0xbd45aec9	-0.04826239
96	0xbd61b120	-0.05510056
97	0x3d42d3c8	0.04756525
98	0x3ca1ec07	0.019765867
99	0xbd92bb9e	-0.071646914
100	0xbdcefa02	-0.10106279
101	0xbbfbb8ef	-0.007681958
102	0xbdbffb03	-0.093740486
103	0xbd8023c5	-0.062568225
104	0xbc560336	-0.013062289
105	0xbd1ccb93	-0.03828008
106	0x3c41f0c1	0.011837185
107	0xbde24d7c	-0.11049935
108	0xbd2606d0	-0.04053384
109	0xbe059d40	-0.13048267
110	0x3d66131b	0.056170564
111	0x3d31a933	0.04337425
112	0x3d0e7e91	0.034788672
113	0xbc851fcb	-0.016250512
114	0xbe179076	-0.14801201
115	0xbd3736a9	-0.044729862
116	0xbd20df45	-0.039275426
117	0xbcce7b8f	-0.025205402
118	0x3bbb558f	0.0057169865
119	0xbd7960bc	-0.06088327
120	0xbd872626	-0.06599073
121	0xbd98e6a4	-0.07465866
122	0x3d072cd1	0.033001725
123	0xbc3f3660	-0.011670679
124	0xbd173a77	-0.03692099
125	0x3d8dfdf6	0.06933205
126	0x3cad4205	0.021149645
127	0x3cafd925	0.021465847
128	0xbd7c5aed	-0.06161015
129	0xbdf62e8c	-0.12020597
130	0xbde0ada9	-0.10970623
131	0x3d0865a4	0.033300057
132	0x3d380853	0.044929814
133	0xbb608c12	-0.0034263176
134	0xbc3337fa	-0.010938639
135	0x3d830b34	0.06398621
136	0xbd2c2c2b	-0.04203431
137	0x3dbdb888	0.09263712
138	0x3de5c508	0.11219221
139	0x3d97d403	0.07413485
140	0x3dd03eb6	0.10168211
141	0xbc889333	-0.016671753
142	0x3d37bf95	0.04486044
143	0xbdce648c	-0.100777715
144	0x3d89b703	0.0672436
145	0xbd12d20c	-0.035844848
146	0x3d84a517	0.06476801
147	0xbc61ac7e	-0.0137740355
148	0x3d1b6819	0.037941072
149	0x3d4d515b	0.050126415
150	0x3cebd862	0.028789703
151	0xbd17b920	-0.037041783
152	0xbdada141	-0.08478022
153	0xbd20dc5d	-0.039272655
154	0xbcccb437	-0.024988277
155	0xbda64598	-0.08118743
156	0x3d741104	0.05958654
157	0xbcf28f83	-0.029609447
158	0xbcf8ccbf	-0.030371068
159	0x3d2bd6f8	0.041953057
160	0x3db22cd3	0.08699956
161	0xbd9c2bd2	-0.076255456
162	0x3cc258f2	0.023724053
163	0xbd6956f9	-0.05696771
164	0xbc50d02f	-0.012744947
165	0xbd049930	-0.032372653
166	0x3c7d6950	0.015467003
167	0xbdfb82b9	-0.12280793
168	0x3cc571af	0.02410206
169	0xbc753567	-0.014966345
170	0x3d3d736b	0.04625265
171	0xbc2262de	-0.009911267
172	0xbd09c698	-0.03363666
173	0xbc0fa416	-0.0087671485
174	0xbd144139	-0.036195014
175	0xbd9c9e45	-0.07647375
176	0x3c1bfcf4	0.009520758
177	0xb90fa573	-0.00013699177
178	0xbd65c6d2	-0.056097813
179	0xbdb965d0	-0.09052622
180	0x39fcf625	0.00048248578
181	0x3d12599d	0.035729993
182	0x3b5d4117	0.003376072
183	0xbdee19ba	-0.11626001
184	0x3d47c0de	0.048767917
185	0xbd903e8e	-0.07043181
186	0xbd917111	-0.07101644
187	0xbd18c69a	-0.037298776
188	0x3dab7651	0.083721764
189	0xbc08756a	-0.008328775
190	0x3d3a9f6c	0.045562193
191	0x3d72edd6	0.05930885
192	0x3d2e704c	0.042587563
193	0x3d95abcd	0.07308159
194	0x3daf9ab3	0.085744284
195	0xbcb270c5	-0.021782288
196	0xbc8ead51	-0.017416628
197	0xbd90f0ad	-0.07077155
198	0xbda67f2d	-0.081297256
199	0x3d467328	0.048449665
200	0x3d7b312d	0.061326195
201	0xbca78670	-0.020449847
202	0xbd4aa44b	-0.04947309
203	0xbdbaa8af	-0.09114205
204	0x3d727d32	0.059201427
205	0xbd118f76	-0.035537206
206	0xbd76ded3	-0.060271095
207	0x3d6919b4	0.056909278
208	0xbd98ecab	-0.07467016
209	0xbd4d9e2e	-0.05019968
210	0x3d9f720f	0.07785427
211	0xbd9e5c06	-0.07732396
212	0xbcec9381	-0.02887893
213	0x3cf4121b	0.02979379
214	0xbb1c675f	-0.0023865325
215	0x3cdb7c85	0.026792774
216	0x3d97292e	0.07380901
217	0xbd9872f7	-0.07443803
218	0xbc9462ea	-0.018113572
219	0x3a74f4a1	0.0009344314
220	0xbc7d5960	-0.015463203
221	0x3d746490	0.059666216
222	0x3c8bcf69	0.017066674
223	0x3d8b869a	0.068127826
224	0xbc573da9	-0.0131372595
225	0x3cb946fd	0.022616858
226	0xbcaee0ce	-0.02134743
227	0xbdcde62d	-0.10053668
228	0xbd01cdbe	-0.03169035
229	0x3dac3f59	0.0841052
230	0xbb8b0d53	-0.0042435317
231	0xbd6326dc	-0.05545698
232	0x3d44c630	0.04804057
233	0x3d146768	0.03623143
234	0xbd24109b	-0.0400549
235	0xbcb02c80	-0.021505594
236	0x3c8d56b7	0.017253263
237	0xbd93670a	-0.071973875
238	0x3d2091a1	0.039201383
239	0xbcdb1848	-0.026744977
240	0x3d273e06	0.040830635
241	0x3c753a1f	0.01496747
242	0x3daa13ed	0.08304582
243	0xbd3208a7	-0.043465283
244	0x3d7d4f42	0.061843164
245	0xbd932ca7	-0.07186251
246	0xbd287be3	-0.041133773
247	0xbdbbc446	-0.091682956
248	0x3d840d35	0.064478315
249	0xbdbec1e3	-0.09314325
250	0x3d39eaad	0.04538982
251	0x3d649fa1	0.055816296
252	0x3c480a3c	0.012209471
253	0x3b115e6a	0.002218152
254	0x3d9daa87	0.07698541
255	0xbd66ff4b	-0.05639581

fc2.bias f4 [128]
0	0x3d2633b0	0.040576637
1	0x3c70141a	0.01465323
2	0xbdfe8774	-0.124281794
3	0x3c5f99e5	0.013647531
4	0x3d5b266f	0.05350345
5	0xbdd3c88f	-0.10340988
6	0xbcaa38e0	-0.020779073
7	0x3d271a9b	0.040796857
8	0x3cdb7a58	0.026791736
9	0x3d32c556	0.043645225
10	0xbc8b3255	-0.016991774
11	0xbd28db4b	-0.04122476
12	0x3bc57aa6	0.0060265837
13	0x3d3bfd17	0.045895662
14	0xbda46fe7	-0.08029156
15	0x3d433984	0.047662273
16	0xbce4606f	-0.027878014
17	0xbd90859d	-0.07056735
18	0x3d74953b	0.05971263
19	0x3d1141d7	0.03546318
20	0x3cd92c39	0.026510345
21	0x3d4b7164	0.049668685
22	0xbd5b69e0	-0.053567767
23	0xbb90634a	-0.0044063674
24	0xbc997b67	-0.0187356
25	0xbd942509	-0.072336264
26	0xbc2c445c	-0.010514345
27	0xbdde27a2	-0.10847403
28	0x3bbf7db1	0.005843841
29	0xbda14062	-0.07873608
30	0x3d6720aa	0.056427635
31	0x3c1c48e8	0.009538867
32	0x3d320ea8	0.04347101
33	0xbc8d7757	-0.01726882
34	0xbda8fdc7	-0.08251529
35	0xbd972427	-0.073799424
36	0xbc5351d2	-0.012897925
37	0xbbc41c11	-0.005984791
38	0xbdbf625f	-0.09344935
39	0x3c13bedc	0.009017672
40	0xbdc30e0f	-0.09524166
41	0x3c9aba08	0.018887535
42	0xbd9b697c	-0.07588479
43	0xbbbd679a	-0.0057801725
44	0x3c5e6a73	0.013575184
45	0x3c6fbf4a	0.014633009
46	0xbd046ad4	-0.03232844
47	0xbd568eac	-0.052382156
48	0xbdad551e	-0.084635004
49	0xbcb5fdf6	-0.022215825
50	0x3c6f8b3a	0.014620597
51	0xbc9c6a15	-0.019093553
52	0xbdb537e3	-0.0884855
53	0xbdbef1c5	-0.09323458
54	0xbde09777	-0.109663896
55	0xbc9a6850	-0.018848568
56	0xbd1d20bf	-0.038361307
57	0xbda2875e	-0.079359755
58	0x3ba39358	0.00499193
59	0xbc13fbde	-0.009032218
60	0x3d5c8488	0.05383733
61	0x3d1c666b	0.03818361
62	0x3b25fd81	0.0025328102
63	0x3c06f4b3	0.008237052
64	0xbd638564	-0.055547133
65	0xbd1166d9	-0.035498474
66	0x3c51c938	0.012804322
67	0xbcadfb72	-0.021238063
68	0x3d573ccb	0.05254821
69	0x3d07ecc3	0.033184778
70	0xbd4ac21e	-0.04950153
71	0x3d0f5055	0.03498872
72	0x3a5f57d9	0.0008519865
73	0xbd3aea16	-0.045633398
74	0x3d472e16	0.048627935
75	0xbcc679d0	-0.024228007
76	0x3ddddbac	0.10832915
77	0x3d8e13f1	0.06937397
78	0xbcea2f7e	-0.0285871
79	0xbc99d294	-0.01877717
80	0xbc02da67	-0.0079866415
81	0x3b23b02f	0.002497684
82	0x3bf228c7	0.007390115
83	0x3d994b67	0.07485085
84	0xbdab0ce3	-0.08352067
85	0x3d9979f4	0.07493964
86	0xbcfb919f	-0.030709086
87	0x3c25f41d	0.010129002
88	0x3d649719	0.05580816
89	0xbcbaa88d	-0.02278545
90	0xbdad5cde	-0.08464979
91	0xbd274fd6	-0.04084762
92	0x3cf5fd51	0.030028017
93	0xbd234bda	-0.03986726
94	0xbddf3dec	-0.109004825
95	0xbd893fb2	-0.06701602
96	0x3c83799e	0.016049203
97	0xbd6d00e2	-0.05786217
98	0xbd8cf58c	-0.06882772
99	0xbdc10e08	-0.094265044
100	0xbda846ae	-0.08216606
101	0x3b06e5e5	0.0020583805
102	0x3d74c7c0	0.05976081
103	0x3d559993	0.052148413
104	0xbd135dd5	-0.035978157
105	0xbd8e9b7b	-0.06963249
106	0xbdd1c743	-0.10243084
107	0x3dbfd1c1	0.09366179
108	0xbcd12682	-0.025531057
109	0xbc8d867a	-0.017276037
110	0xbda2f893	-0.07957568
111	0xbd4c2d5a	-0.049847938
112	0x3b6b540f	0.0035908257
113	0x3cd206b3	0.02563796
114	0xbb2ca42d	-0.0026342974
115	0xbd8a5c42	-0.06755878
116	0xbdae9fc2	-0.08526565
117	0xbdb51bca	-0.08843191
118	0xbd407733	-0.046988677
119	0x3b1e71eb	0.0024176787
120	0xbd9cce5b	-0.07656547
121	0xbdd4246c	-0.103585094
122	0xbdf5eb0a	-0.12007721
123	0xbd555215	-0.052080233
124	0xbd07613b	-0.03305171
125	0xbd9a3347	-0.075293116
126	0xbd8e686c	-0.06953511
127	0xbd59a6dd	-0.05313765

fc3.weight f4 [1, 128]
0	0xbb0e3f4e	-0.0021705213
1	0x3d06499d	0.032785047
2	0xbcafef34	-0.021476366
3	0xbb973f41	-0.0046156948
4	0x3c2bc76d	0.0104845585
5	0x3aae07df	0.0013277492
6	0xbcd9f9a1	-0.02660829
7	0xbc56c0d5	-0.013107498
8	0x3c4d3909	0.012525805
9	0xbdaa3c0d	-0.08312235
10	0xba7a4430	-0.0009546904
11	0x3bdc74fb	0.0067278123
12	0x3b4a6216	0.0030881218
13	0x3b782eda	0.0037869723
14	0xbbccc026	-0.006248492
15	0xbba3caad	-0.004998526
16	0xbc1e5996	-0.009664914
17	0xbd9a769d	-0.07542155
18	0xb9dadbdf	-0.00041744017
19	0x3bc1e0ad	0.005916676
20	0x3d5c6d00	0.053814888
21	0x3abf7fff	0.0014610289
22	0xbca5a853	-0.020221865
23	0x3dc7e037	0.097595625
24	0x3ce9a3df	0.028520523
25	0x3b943b7c	0.0045236927
26	0xbc2e2cfd	-0.010630843
27	0x3c37e331	0.0112236
28	0x3ccb6fed	0.024833644
29	0x3cd23f99	0.025665091
30	0x3c1369e2	0.008997412
31	0xbc332481	-0.010933996
32	0xbc516850	-0.012781218
33	0xbb08adf9	-0.002085565
34	0x3d3066f3	0.04306693
35	0x3c15a58d	0.009133709
36	0xbd1aaf4f	-0.037764844
37	0x3c0c2783	0.008554342
38	0xbb8807b6	-0.00415131
39	0x3cec695e	0.028858837
40	0x3d303e53	0.043028187
41	0xbbb71bc2	-0.005588026
42	0xba6ba345	-0.00089888676
43	0x3cac67bc	0.021045558
44	0x3cea6bac	0.028615795
45	0x392d9955	0.00016555686
46	0x3c3a12a8	0.011356987
47	0xbbe31ff4	-0.0069312993
48	0x3c1abd03	0.009444478
49	0x3c913dbc	0.017729633
50	0x3c1e9728	0.009679593
51	0x3c5983b7	0.013276032
52	0x3d2ad7b1	0.041709606
53	0x3d2664ed	0.040623594
54	0x3cec5b10	0.028852016
55	0xbce9fbdf	-0.028562484
56	0xbdca2bd5	-0.098716415
57	0xbc21ba38	-0.009871058
58	0x3d4db335	0.050219733
59	0x3be1fc6c	0.006896546
60	0xbb755312	-0.0037433547
61	0xbb40554c	-0.0029347716
62	0xbdd61493	-0.10453143
63	0x3c0502a9	0.00811831
64	0xbcdc1d93	-0.02686957
65	0x3d019f38	0.031645983
66	0xbdbc1cd0	-0.09185183
67	0x3d64b637	0.055837836
68	0xbd85706f	-0.06515586
69	0xbd8c0207	-0.06836324
70	0x3c9059eb	0.017621001
71	0x3cb17d3c	0.021666162
72	0xbc765a86	-0.015036231
73	0x3c65532a	0.013996879
74	0xbb2f7d62	-0.0026777615
75	0x3b8607c1	0.00409028
76	0xbdae489c	-0.08509943
77	0xbbf2fc14	-0.007415304
78	0x3d8f00f8	0.06982607
79	0xbc1a7900	-0.009428263
80	0xbc8403c3	-0.016115075
81	0x3c9ab4f1	0.018885108
82	0x3c0d93ca	0.008641193
83	0xbcc8cad2	-0.024510775
84	0xbdb5b1b4	-0.08871785
85	0xbd22b09f	-0.03971922
86	0x3bb7b300	0.0056060553
87	0xbccd88dd	-0.025089676
88	0xbc747f46	-0.0149229225
89	0xb90aa087	-0.00013220507
90	0x3cb25532	0.02176914
91	0xbd082ab4	-0.03324385
92	0xbbc2bb02	-0.005942703
93	0x3ad86080	0.0016508251
94	0x3cc1f498	0.023676202
95	0x3af0eacc	0.0018380522
96	0xbb9437c6	-0.0045232503
97	0xbc938498	-0.018007562
98	0xbc4320cf	-0.011909678
99	0x3cc48018	0.023986861
100	0x3b8c97f3	0.0042905747
101	0xbcc54e2b	-0.024085125
102	0xbccc7707	-0.0249591
103	0x3ca50c3d	0.020147437
104	0xbd9b8354	-0.07593408
105	0xbd650331	-0.055911247
106	0xbda0dd4f	-0.07854711
107	0xbc711ecd	-0.014716816
108	0xbc82fe80	-0.015990496
109	0x3d5e551c	0.054280385
110	0xbc0e9105	-0.008701568
111	0x3c31272a	0.01081256
112	0xbb09918d	-0.0020991296
113	0xbd133914	-0.035943106
114	0xbcc94f06	-0.024573814
115	0x3cc96cd9	0.024588035
116	0x3cbe1fbf	0.023208497
117	0x3c210810	0.009828582
118	0xbd353cd9	-0.044247482
119	0xbcf94b6a	-0.030431468
120	0x3d3b5a28	0.045740277
121	0x3cf04d1e	0.029333647
122	0x3b598dec	0.0033196164
123	0x3c768116	0.015045425
124	0xbd8d8f18	-0.069120586
125	0x3cb7dad7	0.022443218
126	0xba0553cb	-0.00050860335
127	0x3c1b4754	0.009477455
