PythonChess/saved_models/chess_model_episode_200.pth (torch, 102696 bytes, 5 tensors)

fc1.weight f4 [128, 64]
00000000: 3e55 ac3d bd0d 27bd 32ed 063e d1f5 72bd
00000010: 9fc1 403e f3f4 643c e796 063e d970 8f3d
00000020: b3fe 993e e572 e4be 5bb5 2b3d 624a 8c3e
00000030: c00c de3d 702a 16bd c77c 283e 4654 14bd
00000040: ef26 12c0 bebb 0fbe 4449 d9be a55a f23d
00000050: dce9 9cbe b31a ef3d bf93 353e 1da8 0f3e
00000060: e625 7abd e2a4 543e f212 49bd 35af 0cbe
00000070: a167 873d f50f c03e 005a 103d d525 353f
00000080: 2244 df3d 346c 57bd 0259 a1bd c002 c53b
00000090: f435 fa3d 3293 a03d 58b9 223d 6860 353d
000000a0: a412 3d3d 7ea5 d4bd 6a24 ccbd 1a5b f93d
000000b0: 301c 79bc 40b1 093d 9eb8 b83d e072 a83d
000000c0: 928d e7bd 6678 f33d b6e4 a7bd 58e7 203d
000000d0: d8aa 353d 62f0 dbbd 9040 7e3c 482a f0bc
000000e0: 6803 5f3d 10eb 933c 32f8 f1bd 6015 fc3b
000000f0: ec28 cc3d 2089 e8bd f872 da3d 7093 7c3c
00000100: 40c8 663e 11b6 113e 56de cc3c 0024 873e
00000110: 2364 d93e d284 cb3e 4dfc af3e 3a7e dc3d
00000120: f6f8 8ebc 3686 7ebe 927b ec3d 8227 943d
00000130: 5ddc 3ebe 2f76 65bf 39a5 c0bd 4069 1a3d
00000140: 4c3c 8c3e 7e5b f3bf a0d4 f43d a543 de3d
00000150: 4e83 a3bd e6bb 063e 8ee7 0cbe 7d79 ea3d
00000160: a15c 323e 91f0 f7bf f012 cbbe 3ebd c9be
00000170: 9809 94bc cd75 d6bc 1a15 543e a007 743d
00000180: a065 01bd 90e4 77bd f040 313c ee30 d33d
00000190: 061a 99bd 840a 47bd 3e16 9cbd f07c 7cbc
000001a0: 48e2 413d 4027 893b 58c2 9f3c 923f c8bd
000001b0: 38c7 e53d 4e83 bebd 2e4a 9a3d 788e afbc
000001c0: d608 b43d 58d1 a9bc 5e19 c4bd 3ce2 823d
000001d0: 68ec 4d3d 90ef f13d 4083 dd3d 1cff dcbd
000001e0: 9c29 0e3d 9644 d4bd f8f0 f7bd 1084 51bd
000001f0: 3016 09bd d8ba 2cbd 80d6 3e3b 2a5a f1bd
00000200: 5088 d73c 5fa1 8f3d bea1 033e 670e 7a3e
00000210: 02cd 383e 13ab e3bc 6f1e ef3b 520d 153d
00000220: 7f1d 763d 594a 533e b3f5 a63d 0db0 58bf
00000230: e02d 063f 4814 563d b026 043f 704a f63b
00000240: 8c8a 693e 78b7 cebc ff5b 01be a77b 523e
00000250: c017 af3d 9ad6 19bf 0ce8 9a3d 837c c13d
00000260: c616 1b3e 572d 393e d25f 04c0 052b 963e
00000270: 1707 55be 66c8 a6bf 10f6 b5bf 033c 3bbf
00000280: be5a c63d 36c7 febd 00b6 6fbb 807d 8d3b
00000290: 1c37 6d3d a8a4 c63c 70be f0bd 98e0 7fbd
000002a0: 488f 4c3d e0c8 8e3d 3a68 ca3d 6818 f23d
000002b0: 90de 183c 18d3 393d 304c 67bd 6cb3 8b3d
000002c0: a0b0 fd3c ac42 b63d 6c59 b7bd 827e bc3d
000002d0: 286d 58bd ca12 de3d 7852 2cbd d866 9bbc
000002e0: 0075 e23b 2695 96bd 50f5 6d3c c0ae 6abb
000002f0: 7c3a dd3d de65 c7bd 96d0 f13d 8411 69bd
00000300: 7b30 2dbd c196 eb3c 41cb 673e c2ef 113e
00000310: 6ce7 a13e 50b1 d7bd 22a5 753e 207b 9bbd
00000320: 293e 013e ece4 11be 3e42 06bf c822 12bf
00000330: 52eb e73e 06df 81be 83b7 34bf e557 2ebd
00000340: 776f 8ebe 126d f83d 9e67 dfbb 26b4 3b3e
00000350: 8412 663c 0b01 10c0 a92a 67bf 20a7 26be
00000360: e980 b6bd de13 3a3e 2d84 6b3e 5759 bbbd
00000370: 8f92 5fbf 9638 8b3d 540c b73d 5e40 90be
00000380: c071 54bb 60f4 a0bc 4490 fe3d 9acb cabd
00000390: 48d8 dbbd c22d bb3d 38c3 343d f298 dc3d
000003a0: a0c6 b23d 0863 28bd d412 8abd 060f a53d
000003b0: 14c7 f63d c0f4 95bb faeb eabd de70 8dbd
000003c0: 4820 d6bc 646d 903d 3484 46bd c4c7 06bd
000003d0: 0c5d 84bd 807e c2bd 28a5 62bd 6071 13bc
000003e0: b02c b2bd c083 3a3d 447a 573d ae22 b4bd
000003f0: 38b8 d13c ceb0 b53d d0be 65bc 90f8 10bc
0.08414696 -0.040784586 0.1317642 -0.05931646 0.1882386 0.013974416 0.13143502 0.07003946
0.30077133 -0.44618908 0.041921 0.274005 0.108422756 -0.036661565 0.16453849 -0.036213182
-2.2836263 -0.14036462 -0.4243871 0.11833695 -0.3064717 0.11675014 0.17732142 0.14028974
-0.0610713 0.20766023 -0.049090333 -0.13738711 0.066115625 0.37512174 0.03524208 0.7076085
0.10901667 -0.052593425 -0.07878305 0.0060122907 0.12217322 0.07840575 0.03972754 0.044281393
0.046160355 -0.10383128 -0.09967883 0.12175579 -0.015204474 0.033616304 0.09019588 0.08225036
-0.11306299 0.118881986 -0.0819792 0.039283127 0.044352382 -0.10739209 0.015518323 -0.029317036
0.054446608 0.018056422 -0.118149176 0.007692978 0.09968743 -0.113542795 0.1066646 0.015416011
0.22537327 0.14229609 0.025008362 0.26394653 0.4245921 0.3974977 0.34372178 0.10766263
-0.017452698 -0.24855885 0.11547007 0.07234098 -0.1863875 -0.8963346 -0.09406514 0.03769803
0.27389753 -1.9012296 0.119546175 0.10852746 -0.07984029 0.13157615 -0.13760206 0.11448953
0.17418148 -1.937029 -0.39662886 -0.39402193 -0.01807098 -0.026179219 0.20711175 0.059577584
-0.031591058 -0.06052071 0.010818705 0.10312067 -0.07475667 -0.048594013 -0.0762143 -0.015410647
0.04733494 0.004185587 0.01950185 -0.0977775 0.112196386 -0.09302388 0.0753368 -0.02143024
0.08790748 -0.020729706 -0.09575151 0.06390807 0.050274283 0.11813271 0.108160496 -0.10790846
0.03470765 -0.10364644 -0.12106508 -0.051151335 -0.033468425 -0.042170376 0.0029119551 -0.117847756
0.026310116 0.07013201 0.12854668 0.24419557 0.18046954 -0.027791535 0.007297329 0.036389656
0.060086723 0.2063383 0.08152332 -0.8464363 0.5241375 0.052265435 0.5162153 0.007516198
0.22806758 -0.02523397 -0.1263275 0.20554982 0.08549452 -0.6009308 0.07563791 0.09447577
0.15145406 0.18083702 -2.0683484 0.29329696 -0.20803486 -1.3029907 -1.4215717 -0.73138446
0.096852764 -0.1244034 -0.0036576986 0.0043179393 0.057913885 0.024248436 -0.11755073 -0.06247005
0.04994133 0.069719076 0.09883161 0.118210614 0.009330407 0.04536733 -0.056469142 0.068213314
0.03096801 0.088994354 -0.08952603 0.09203817 -0.052838475 0.108434275 -0.042070836 -0.018969938
0.00691092 -0.073526666 0.014523819 -0.0035809726 0.10802171 -0.097362265 0.11807363 -0.05690147
-0.042282563 0.028758409 0.22636129 0.14251617 0.31621873 -0.105318666 0.23988774 -0.075918436
0.12621368 -0.14247483 -0.5244483 -0.5708432 0.45296723 -0.25365466 -0.70592517 -0.04256429
-0.27819416 0.121301785 -0.006817772 0.1833044 0.0140425 -2.2500637 -0.9029947 -0.1627469
-0.089113064 0.18171641 0.2299964 -0.091478996 -0.87333006 0.06797902 0.08937898 -0.28174108
-0.0032416433 -0.019647777 0.1242986 -0.09902115 -0.10734612 0.09139587 0.044131488 0.107713595
0.08729291 -0.04111007 -0.067418724 0.08059506 0.1204969 -0.0045762956 -0.1147079 -0.06906293
-0.02613844 0.070521146 -0.048465922 -0.032905355 -0.0646306 -0.09496784 -0.055333287 -0.008999199
-0.0869993 0.045535803 0.052606836 -0.08795677 0.025600538 0.088716134 -0.014022544 -0.008848324

fc1.bias f4 [128]
00000000: 4abf 88be f0e3 c5be f285 6bbe 92cb 22bf
00000010: 1429 16bf 6b64 04bf 8391 0abf df2f 4cbe
00000020: 249e cdbe 968f 03bf 0a39 16bf 5f84 17bf
00000030: 0d31 e8be 5a15 2dbf 6909 c4be 063d fabe
00000040: 69fc bcbe 15a1 dbbe e91e dabe a336 ccbd
00000050: 75fd e2be 1f72 2abe ee4d 8fbe b139 05bf
00000060: 93a8 07bf 9060 a0be 08e5 fbbe 711d 33be
00000070: f512 05bf c6ee 9ebe 3dbd ddbe 14c8 68be
00000080: 0f2e 63be 919d 81bf da34 45bf 1f21 c3be
00000090: 74a6 3abf 70d7 9abe 1a4b 37bf 2fee b8be
000000a0: 21c2 ccbe 1a9c e4be a28e 9bbe a072 26bf
000000b0: f33e 03bf a77f 46bf 755a 05be b97b 5fbe
000000c0: d8c7 1ebf caf1 2fbf b466 31bf 8103 fbbe
000000d0: b004 e8be bcdd 0abf a33f 3bbf 4f8f f8be
000000e0: dd99 28be 5d17 17bf 6184 11bf d22d febe
000000f0: ba37 e7bf dc57 a7be c2be 5dbf 9f3b dfbe
00000100: 4c2d 1bbf 4be1 5bbe ef42 53bf e86a 27bf
00000110: 7b75 dcbe b63b 09bf a267 8cbb 1eb9 abbe
00000120: 12d8 1bbf ad97 26be 9aff 80bd d609 a6be
00000130: c2b7 cabe 2e6f 0dbf cbd1 72be 1f57 edbe
00000140: 4967 d8be abdf 22bf 7ce3 04bf 462e dabe
00000150: 08b4 aabe 7e03 e9be 0a5a 09bf 0bd6 3bbf
00000160: 9286 a6be 4545 cabe fe54 2dbf 1799 7bbe
00000170: 3628 51bf e2d2 bfbe 59bf f6be a2a9 02be
00000180: 222a 9fbe 2b42 5dbf 8435 7cbe 4119 d9be
00000190: f9c4 a5be 4ce4 15bf 53d1 4abf d9e8 1cbf
000001a0: 09de 1cbe 21c3 12bf 9155 acbe c0ce 21bf
000001b0: 3cdc 39bf 3f0d 34bf e118 e2be 6720 dbbe
000001c0: 665a a3be 969c b0be 4f0f b4be 786a 9fbe
000001d0: f577 efbd e34b f5be 4051 a9bd 3d96 febe
000001e0: 727f babe 0426 05bf 13b9 c0bf 1703 53bf
000001f0: dd39 6dbe bf90 11bf da84 1abf 50b6 2cbf
-0.26708442 -0.38650465 -0.23000315 -0.63591874 -0.5865643 -0.51715726 -0.54128283 -0.19940136
-0.40159714 -0.5139097 -0.58680785 -0.5918636 -0.45349923 -0.67610705 -0.3828843 -0.48874682
-0.36911324 -0.42896333 -0.42601708 -0.099713586 -0.44333997 -0.16645096 -0.27989143 -0.52041155
-0.529916 -0.3132367 -0.49198174 -0.174917 -0.5198205 -0.31041545 -0.4330844 -0.22732574
-0.22185539 -1.012621 -0.7703377 -0.38111207 -0.7291024 -0.3024249 -0.7159897 -0.3611922
-0.3999186 -0.44650346 -0.30382258 -0.65018654 -0.5126793 -0.7753853 -0.13022788 -0.2182454
-0.6202369 -0.68728316 -0.6929734 -0.4902611 -0.45316076 -0.5424459 -0.73143977 -0.48546836
-0.16464944 -0.59020025 -0.5684262 -0.49644333 -1.8063881 -0.3268422 -0.866192 -0.43600175
-0.6061599 -0.21472661 -0.8252401 -0.653975 -0.4305838 -0.53606737 -0.004284815 -0.3353967
-0.6087657 -0.16268797 -0.06298752 -0.3242938 -0.3959332 -0.5524777 -0.23712842 -0.4635553
-0.422663 -0.6362254 -0.51909614 -0.4261343 -0.33340478 -0.45510477 -0.53653014 -0.7337348
-0.32524544 -0.39505973 -0.6770781 -0.24570118 -0.8170198 -0.37465578 -0.48192862 -0.12760022
-0.31086832 -0.8642909 -0.2462979 -0.4240208 -0.3237684 -0.5855148 -0.79225653 -0.612928
-0.15319075 -0.57328993 -0.33659032 -0.632061 -0.72601676 -0.7033271 -0.44159606 -0.4279816
-0.31904906 -0.34494466 -0.3516793 -0.31135917 -0.11692802 -0.4790946 -0.0826745 -0.49723998
-0.36425358 -0.5201113 -1.505648 -0.8242659 -0.23166604 -0.5686149 -0.60358965 -0.67465687

fc2.weight f4 [128, 128]
00000000: 0406 c6be 08aa dbbe 0f45 f93d 741f 74bc
00000010: 899b 673e e3f6 843e e9ee 61bd dd20 703c
00000020: 5070 c0bd 99a7 75bf 86d2 a0be e854 05bf
00000030: c0b1 5ebe 71ed 24be bc62 54be 1a14 553d
00000040: 948b 9abb 7ad2 70be 4bc7 ecbe bf2f c5be
00000050: 4da5 0c3e eedc 8bbe ad8e 1fbe 0b4c 73be
00000060: 65e7 7b3e 5d7e d6bd 045a 813e d361 fbbe
00000070: 9d1b b33d f976 69bf 83e3 b6be 3ee8 00bf
00000080: ae20 c23d 8690 013e 4f5f c7be 87a4 0abe
00000090: 681b 81bc 954c f9bd abcd 54be 1eeb 55bf
000000a0: 5c83 54be 00bb 3dbf 2558 8f3d a164 16bf
000000b0: a4ef 153e 283b 92bd dc57 c23e 26e8 3abe
000000c0: a95b 4ebf f470 0fbe ccc4 31be adfa 5b3e
000000d0: 0489 93be 8c9e 543d 67ea 92be 504a adbe
000000e0: 034d 96be 7c2e 9abe 6973 3abe 3a43 25bd
000000f0: 58c7 98be 2400 14bf fb51 9fbe 9b5c 64be
00000100: c25d 3abe 69e3 13bf 9862 24be dcf0 bebd
00000110: 0d0f 1bbd 07a4 33bc 0798 ca3d 8be3 4fbe
00000120: 7936 c73d 8c6d ccbd 3dd4 433e 8f9a f3be
00000130: 5002 42be 1a17 b0bd 528c 9cbe 0a68 b8bd
00000140: 9a33 36bc 9aed 273e 14dd bfbe c36c d9bd
00000150: 03a4 93bf 83e4 db3c d257 b13d b641 cebe
00000160: e5b0 b0be 4c0b bfbe 1e05 0bbe 8029 80be
00000170: 07ce 34be dcc7 8abe c6a2 bdbe 069b ed3d
00000180: dde9 823d ac3b 75be 4bbc f1bd be87 c83d
00000190: 5ebb b23d 8946 3c3d 7aeb c4bc 6c08 8d3e
000001a0: bdda 5abe 96c7 11be d439 443e 584f 1abe
000001b0: 863e f03d a98b 43bf 2440 f0be ae37 013e
000001c0: 1b3b c33d 8b4a 0d3e 3b08 fdbd 60ef 86bd
000001d0: 7050 6b3d edf5 653d 210e 8dbd 644f 0b3b
000001e0: 28e1 b9bd 878a 9bbc 9700 abbd a1e3 41be
000001f0: cb8e 07bf c7ba f03c 5522 ecbe e3ca 853d
00000200: de8c ad3c 1c18 0d3c 0b07 ad3d ea0d e83c
00000210: f968 3ebe 33e6 75bd 5a2b 96be 6d6c 25bf
00000220: 8a4a d3be fe94 36be aef1 b2be 3b39 aebd
00000230: 6f1e 83bd 4b36 2c3e 7c6e dcbe 69a7 c2bd
00000240: 1b0f acbd 3c74 1ebd d568 31be d033 36bc
00000250: 6c6d 12bf 1230 283e a347 1dbe 9fbd cdbd
00000260: d01d ee3c 4a6c d63d 4edd 56be 1a88 ebbd
00000270: 11fb 23be e599 5cbd ddbb 3fbf 35e3 d43d
00000280: c6ce 03bf fc13 c7bd 7c58 7ebe 126d 36bf
00000290: e5ea 5ebe a401 bf3d bcbd 98be bbad f9bb
000002a0: b535 113d d756 a1be bd30 543e 56a6 173e
000002b0: 09f1 9c3d 50be a2be c01d 143d 683a c83c
000002c0: 86d1 083d d1f9 a6be f61d 32bc 81b8 c33d
000002d0: 2d1f 8dbe 11a9 d0bc 9244 34bb f080 aebd
000002e0: 95e0 4bbe 42b8 7cbd b36d a03d c536 98be
000002f0: 0993 92bd 0a61 46be 534c f1bd 2eff bbbe
00000300: 4c40 37be 291d bfbd 8bb7 b8be cf64 7abe
00000310: ed88 cabd 2fdf bebe 8ab4 28be 66b4 6abe
00000320: cb6d 81be 8d12 3abe 2ba8 c1bd ecef 10bf
00000330: c5d0 1a3e b21e 0bbe 442e bcbe 28fe 7bbd
00000340: 21ee a7be 337b e8bd 2d18 1dbe 81a9 50bf
00000350: 55e0 62bd ad98 f3be 4810 8bbe ecf6 27be
00000360: 9c5b 51be 5121 11bc 01e8 99bd 3765 54be
00000370: de06 cb3b dba4 5ebe fdbf 99be 8ca5 84be
00000380: 3d89 a8be 4a3d 1dbd a736 803b 1743 6dbe
00000390: 3e27 1a3e 7752 57be 9d1c 103e eacd bebe
000003a0: 949a 2e3d bb65 32be 7a62 c6be 36a7 4ebe
000003b0: 78a1 1abe 9976 e4bd eb21 debe 5a67 25bf
000003c0: 1b36 a9bd 62e3 bb3d c4a0 d83d bd0a 72be
000003d0: 88d6 ecbd 717a 593e ef8f 25bd e485 26be
000003e0: 3416 06be 7f82 31be 981c cf3d c0ac f6bd
000003f0: c3dc 2fbe 03ff c5bd 73b1 8fbc d240 3cbe
-0.38676465 -0.4290316 0.12171375 -0.014900077 0.22617926 0.2596961 -0.055159483 0.014656273
-0.09396422 -0.9595886 -0.31410617 -0.5208268 -0.21747494 -0.16106202 -0.20740789 0.052021123
-0.004716346 -0.2351779 -0.46245798 -0.3851299 0.13734932 -0.27316993 -0.1558177 -0.23759477
0.24599989 -0.10473321 0.2526399 -0.4909807 0.08745501 -0.9119716 -0.35720453 -0.50354373
0.094788894 0.12652788 -0.38939902 -0.13539325 -0.015760139 -0.1217281 -0.20781581 -0.83561885
-0.20753235 -0.74113464 0.06999234 -0.587473 0.14642197 -0.071401894 0.37957656 -0.1825262
-0.8060861 -0.14007932 -0.17360228 0.21482344 -0.28815472 0.051909015 -0.2869446 -0.33845758
-0.2935563 -0.3011359 -0.18208088 -0.040347315 -0.29839587 -0.57812715 -0.31117234 -0.22300951
-0.18199828 -0.57768875 -0.16053236 -0.09323284 -0.03785615 -0.0109644 0.09892278 -0.20301645
0.09727187 -0.09981832 0.19123931 -0.47578856 -0.18946195 -0.08598156 -0.30575806 -0.09004219
-0.011120701 0.16399232 -0.37473357 -0.10616448 -1.1534427 0.026842361 0.086593285 -0.40284508
-0.3450996 -0.37313306 -0.13576171 -0.25031662 -0.17656718 -0.27105606 -0.3703825 0.11601834
0.06392262 -0.23948544 -0.11803492 0.09791516 0.08727144 0.045965705 -0.024038065 0.27545488
-0.21372505 -0.14236292 0.19162685 -0.1506933 0.117306754 -0.7638498 -0.46923935 0.12618896
0.09532758 0.13797967 -0.123550855 -0.06588626 0.057449758 0.056142736 -0.068874605 0.0021257037
-0.09076148 -0.018986953 -0.08349722 -0.1893449 -0.5295226 0.029385937 -0.46119943 0.06532838
0.021185335 0.008611705 0.08448609 0.028326947 -0.18594731 -0.06003399 -0.2932995 -0.6461857
-0.41267806 -0.17830274 -0.34950012 -0.085070096 -0.06402289 0.16817586 -0.43053043 -0.09504587
-0.08401319 -0.03868507 -0.17325146 -0.0111207515 -0.57198215 0.16424587 -0.15359358 -0.10045933
0.02906695 0.10469873 -0.20982859 -0.11500569 -0.16013743 -0.053857703 -0.7489603 0.10394899
-0.51487386 -0.097206086 -0.24838442 -0.7126018 -0.21769293 0.09326485 -0.29832256 -0.0076195872
0.03545161 -0.31511566 0.20721717 0.14809546 0.07663161 -0.31785822 0.036161184 0.024441913
0.033402942 -0.3261247 -0.010871401 0.09556676 -0.27562848 -0.025471242 -0.0027506691 -0.085206866
-0.1990989 -0.06169916 0.078334235 -0.29729286 -0.07156951 -0.19372955 -0.11782136 -0.36718124
-0.17895621 -0.09331734 -0.36077532 -0.24452518 -0.09889398 -0.3727965 -0.1647512 -0.22920379
-0.25279078 -0.18171139 -0.094559036 -0.5661609 0.15118702 -0.13585928 -0.36754048 -0.06152168
-0.32798865 -0.113516234 -0.15341254 -0.8150864 -0.05538972 -0.4757742 -0.2716086 -0.16402787
-0.20445102 -0.008858041 -0.07514954 -0.20741735 0.006195887 -0.21742575 -0.30029288 -0.25907552
-0.32917204 -0.038388528 0.003912765 -0.23170124 0.15054032 -0.21027552 0.14073415 -0.37266475
0.042627886 -0.1742162 -0.38747007 -0.20180973 -0.15100658 -0.11155433 -0.43385252 -0.64610827
-0.08262273 0.09174229 0.105775386 -0.23636909 -0.11564356 0.21238114 -0.04042047 -0.16262013
-0.13094407 -0.17334937 0.10112876 -0.12044668 -0.17174058 -0.0966778 -0.01754067 -0.18384102

fc2.bias f4 [128]
00000000: a479 d63e 76a8 1dbe cd50 8b3d ae88 b6be
00000010: 057f d1bd cc55 0cbe 1321 84be b14f 10be
00000020: 5135 83be 9af6 dcbe aeff 8abe 1ed2 123f
00000030: 923f aa3d 124a 0c3e 20e8 2fbe d3a4 14be
00000040: dc00 aebe e348 77bd 91c4 92be 2b69 45be
00000050: 0c54 2dbe 57c6 38bd a86c b5be f4d0 383f
00000060: 7342 35be d2d8 acbe bef3 90be e578 cabd
00000070: 6ff5 4c3e 9a75 92bd 1f4a 953e 531e 7ebe
00000080: e11d e1be 3b1c 06be 4f9f 333f 5705 033e
00000090: d4af 39be 4825 63be e211 85be 3ba4 e23e
000000a0: 1fbf 4ebe ecba dcbd 7c4e 56bc 4a0a aebe
000000b0: 7b72 2e3f 4bed 82bd 675c b5bd e2e9 4a3f
000000c0: c20d 8ebe a7bf 9c3e ecb9 733f 405b 2fbd
000000d0: 5f64 58be 9370 053f 47f9 da3d 9727 293e
000000e0: f09f 9dbe 5ac2 6bbe e417 803e 8d09 b6bd
000000f0: 696f e2bd fd18 6d3e 59b2 43be a5de 28be
00000100: 43af 513d eb89 a0be 3ee0 263e e750 18be
00000110: 517b 70be 3cf8 96bd 97cd 9b3c 979d ab3e
00000120: f374 85bd ce7a 53be 0ed0 963e a949 97bd
00000130: 8489 c63e 6095 8abd d893 8cbe 2426 843e
00000140: c385 8b3c 4236 c9bc 111c 92be ad0f 01be
00000150: 24d5 473d efa2 b03e 61f7 8b3c 10ad 043f
00000160: de47 3bbe 51d7 853d f3cb 2d3f 505c 2bbd
00000170: 2d45 b83d a4cd 45be f1bc 42be cff7 0c3f
00000180: d5ae d53e c8fc d3be 2cad 283f 391e 113d
00000190: 2328 813e a017 a13e 1755 50be 2011 fd3e
000001a0: c56e 783b 31ae b1be d917 a7be 9f6c 88be
000001b0: 1866 fcbd eb28 dbbd 4e56 1cbd 18ed 23bd
000001c0: 69c7 f7bd abe4 fb3e 443a 5fbe f7d2 99bd
000001d0: 0ee8 51be 872e 8ebe d4cf 003f bbbb 73bd
000001e0: 9165 82be 7227 34be ba2e a1be f359 59be
000001f0: 1bfb e53e 8c68 813e db40 35bd d79d 33be
0.4188968 -0.15396294 0.06802521 -0.35651153 -0.10229305 -0.13704604 -0.25806484 -0.140929
-0.25626615 -0.43156892 -0.27148193 0.57351863 0.08312906 0.1370013 -0.17178392 -0.14516
-0.3398503 -0.060372245 -0.28665593 -0.192784 -0.16926593 -0.045111027 -0.3543446 0.7219384
-0.1770113 -0.3375917 -0.2831096 -0.0988634 0.200155 -0.07151337 0.29158112 -0.24816255
-0.43968108 -0.13096707 0.7016496 0.12795006 -0.1813348 -0.2218219 -0.25990206 0.44265923
-0.20190094 -0.1077784 -0.013080236 -0.33992225 0.68143433 -0.06392916 -0.08855515 0.79263127
-0.2774487 0.3061497 0.9520557 -0.042811632 -0.21132039 0.521249 0.10692077 0.16519009
-0.30786085 -0.23023358 0.25018227 -0.088885404 -0.11056406 0.23154064 -0.19111003 -0.16491182
0.051192533 -0.31355223 0.16296479 -0.14874612 -0.23484541 -0.07371566 0.019018931 0.3351867
-0.06516447 -0.20652315 0.29455608 -0.073870964 0.3877679 -0.06766772 -0.27456546 0.2581035
0.017031556 -0.024562005 -0.28537038 -0.12603636 0.04878725 0.34499308 0.017085733 0.5182657
-0.18289134 0.06535209 0.67889327 -0.041836083 0.08997569 -0.19316727 -0.19017388 0.55065626
0.4173495 -0.41403794 0.6588924 0.035429213 0.25225934 0.31463337 -0.20344959 0.49427128
0.003790782 -0.3470321 -0.32635382 -0.2664537 -0.1232416 -0.10701164 -0.038168244 -0.040021032
-0.12098581 0.49197897 -0.2179957 -0.075109415 -0.20498678 -0.27769873 0.5031712 -0.059505206
-0.25468114 -0.17593172 -0.31480962 -0.21225719 0.4491814 0.25275075 -0.044251304 -0.1754068

fc3.weight f4 [1, 128]
00000000: 65df 3c3d 0152 ba3d 6fca 5abe 7279 5bbd
00000010: 032e 58be b475 083e edaf fe3d 37b9 8dbd
00000020: b0d0 b4bd c392 c8bd 6310 31bc 0c51 7b3d
00000030: c934 5abe 6422 a23d bce4 10be ef39 da3c
00000040: 0f74 3dbe 9896 0ebe 241d a23c ce07 c63d
00000050: c867 163d eba5 2cbe 2e14 433c 9e2b 643d
00000060: badd 0b3d c1c4 29be 9819 3b3d ded2 5fbe
00000070: 2792 fabd 8c70 de3d 6ff5 8a3d af1c 84bd
00000080: d6d6 92bd aa84 1ebe cc5b 883d 8e4b 493d
00000090: 3ab6 abbd 5b1d c7bd c7d3 1a3e dc62 663d
000000a0: e4f6 1c3c 17bf 98bd 026f 70be 8844 02be
000000b0: c812 c53c 8d37 12be 8424 2abe 51a1 673d
000000c0: ec6e 953c 4d54 a93d e922 c93c 207b 8e3d
000000d0: 5774 95bd e213 333d 5a65 9f3d 05a4 b53d
000000e0: 4935 0cbe e86a c1be d387 773d d9df 13be
000000f0: 50e5 e7bd 5e3b 0e3d f6e4 64be 5e3c c6bd
00000100: 8480 943d e8bf 9dbd bae6 883d 3051 d3bd
00000110: 4331 b7bd e913 c03d 08aa babd 8bcd 843d
00000120: 04d0 9e3d 6c29 30be 93be 693d acae ad3d
00000130: eb4d 543d c26c b33d e586 2fbe 0e88 c33c
00000140: 8a34 863d 5186 b13d ec44 05be ff82 3abd
00000150: 540b 21be 8d08 733d c39f 81bd 2285 a83d
00000160: fd0f b5bc 97bb c13d f3f5 773d d496 45be
00000170: e8b3 8b3d cf23 f53d 77a4 3ebc c86f 533d
00000180: 0d0e 463d 68b7 02be 1640 553d 09a2 123e
00000190: aa18 d93c 685b 853d fd00 aabb 02c4 ab3d
000001a0: 9d40 b8bd 4489 66be 54c1 28be 2f4e 36be
000001b0: b39b 98bd 7a48 9fbd 90d9 93be c567 90bd
000001c0: b558 9b3d fc0c 883d 94a2 2d3d c548 85be
000001d0: 1aa0 d63c df33 c4bc a3a1 4a3d 018e 22be
000001e0: b9a6 933d 0a0e 6abd f36d 9e3d 36f5 4abd
000001f0: 8e27 a13c b4dc 793d 5427 cdbc feee bd3c
0.046111483 0.09097672 -0.21366285 -0.053582616 -0.21111302 0.1332615 0.12435899 -0.069200926
-0.088288665 -0.097936176 -0.01080713 0.06135659 -0.21309198 0.07916716 -0.14149755 0.026638953
-0.18501304 -0.13924634 0.019789286 0.096694574 0.036720067 -0.16860168 0.011906667 0.05570566
0.034147 -0.16578962 0.045678705 -0.21857783 -0.122349076 0.1086131 0.06785094 -0.064507835
-0.07169883 -0.15480295 0.06658134 0.04914432 -0.08384366 -0.09722396 0.15119849 0.056246623
0.009580348 -0.074583225 -0.23479846 -0.12721455 0.024056807 -0.14279003 -0.16615492 0.056550328
0.018241368 0.08268032 0.02455278 0.06957078 -0.07297581 0.043720134 0.07783003 0.08869175
-0.13692202 -0.37776875 0.060432266 -0.1444086 -0.11323035 0.034724586 -0.22352967 -0.09679483
0.07251075 -0.07702619 0.066846326 -0.1031822 -0.08944943 0.093787976 -0.09114462 0.06484517
0.077545196 -0.17203301 0.05706651 0.08480582 0.05183212 0.08760978 -0.17141302 0.023868587
0.0655299 0.08668197 -0.13014573 -0.045535084 -0.15726978 0.059334327 -0.063293 0.08228518
-0.02210235 0.09459608 0.06053729 -0.19295818 0.06821424 0.119697206 -0.011635891 0.051620275
0.048353244 -0.12765276 0.05206307 0.14319624 0.026501019 0.06511575 -0.005188106 0.08386995
-0.08996699 -0.225133 -0.16479999 -0.17803262 -0.07451572 -0.07777496 -0.28876925 -0.070510425
0.07585279 0.066431016 0.042391375 -0.2603208 0.02619939 -0.023950515 0.049470555 -0.15874483
0.07209534 -0.057142295 0.07735815 -0.049550258 0.019672181 0.061001495 -0.025043167 0.02318525
