PythonChess/saved_models/chess_model_episode_0.pth (torch, 102612 bytes, 5 tensors)

fc1.weight f4 [128, 64]
000000 84 c9 00 bd 4c cb 11 bd a6 29 8a 3d 92 3a cd bd
       -0.03144218 -0.03559427 0.06746225 -0.10020937
000010 40 ce 36 bd ae 48 ce bd e8 e2 a8 3d 40 8a 0b 3c
       -0.04463029 -0.10072456 0.08246404 0.008516848
000020 30 2a 5c bc 80 85 86 bd 44 cf a3 bd 48 e8 c0 3d
       -0.013437793 -0.06568432 -0.07998517 0.09419304
000030 ea 40 bf 3d 18 cb e3 3c 88 29 ca 3c c0 be 76 3d
       0.09338553 0.027806804 0.024678007 0.060240507
000040 10 86 3e bd a0 eb a2 3d 28 04 fc 3c 84 19 54 3d
       -0.04651457 0.07955098 0.0307637 0.051782146
000050 f0 24 a9 bc 00 7a 47 bd c0 7f c1 bc 40 60 fb 3d
       -0.020647496 -0.048700333 -0.023620486 0.122742176
000060 6a 04 da bd b8 71 02 3d 5c 16 c1 3d 08 c4 dd bc
       -0.10645373 0.031846732 0.09428093 -0.027071014
000070 fe 97 83 3d 86 72 83 bd 90 ab 43 bd c6 15 d3 3d
       0.064254746 -0.06418328 -0.047771037 0.10306887
000080 22 44 df 3d 34 6c 57 bd 02 59 a1 bd c0 02 c5 3b
       0.10901667 -0.052593425 -0.07878305 0.0060122907
000090 f4 35 fa 3d 32 93 a0 3d 58 b9 22 3d 68 60 35 3d
       0.12217322 0.07840575 0.03972754 0.044281393
0000a0 a4 12 3d 3d 7e a5 d4 bd 6a 24 cc bd 1a 5b f9 3d
       0.046160355 -0.10383128 -0.09967883 0.12175579
0000b0 30 1c 79 bc 40 b1 09 3d 9e b8 b8 3d e0 72 a8 3d
       -0.015204474 0.033616304 0.09019588 0.08225036
0000c0 92 8d e7 bd 66 78 f3 3d b6 e4 a7 bd 58 e7 20 3d
       -0.11306299 0.118881986 -0.0819792 0.039283127
0000d0 d8 aa 35 3d 62 f0 db bd 90 40 7e 3c 48 2a f0 bc
       0.044352382 -0.10739209 0.015518323 -0.029317036
0000e0 68 03 5f 3d 10 eb 93 3c 32 f8 f1 bd 60 15 fc 3b
       0.054446608 0.018056422 -0.118149176 0.007692978
0000f0 ec 28 cc 3d 20 89 e8 bd f8 72 da 3d 70 93 7c 3c
       0.09968743 -0.113542795 0.1066646 0.015416011
000100 3c 84 1f 3d 54 6e e6 3d ce 08 d1 bd 40 f5 73 3c
       0.038944468 0.11251512 -0.102067575 0.014890015
000110 f0 35 81 bc b8 e5 96 bc a2 6b 87 bd 50 82 03 3d
       -0.01577279 -0.018420085 -0.06612326 0.032106698
000120 c2 4d a0 3d e8 ea 9f 3d 00 d6 85 39 50 13 17 bc
       0.07827331 0.07808477 0.0002552718 -0.009220913
000130 f8 2a 8b 3c 46 7f d8 bd 3a 32 ac bd 60 c3 0f bc
       0.016988263 -0.105711505 -0.084080175 -0.008774608
000140 b8 f4 e4 bd 2c 96 e3 bd 90 8a 5d 3d 26 18 b4 bd
       -0.11179489 -0.111126274 0.05408722 -0.087936684
000150 10 cf 83 bd fc 67 ca bd 5a b6 91 3d 8c 0d 02 3d
       -0.064359784 -0.09883115 0.07114859 0.0317512
000160 98 66 96 3d ba c6 b2 bd 00 c9 6e 3a c0 fc 90 3b
       0.07343787 -0.0872931 0.0009108931 0.0044246614
000170 ae 83 8d bd 2e b8 99 3d 38 7d 9c 3c 88 43 4a 3d
       -0.069098815 0.075058326 0.019102678 0.04938081
000180 a0 65 01 bd 90 e4 77 bd f0 40 31 3c ee 30 d3 3d
       -0.031591058 -0.06052071 0.010818705 0.10312067
000190 06 1a 99 bd 84 0a 47 bd 3e 16 9c bd f0 7c 7c bc
       -0.07475667 -0.048594013 -0.0762143 -0.015410647
0001a0 48 e2 41 3d 40 27 89 3b 58 c2 9f 3c 92 3f c8 bd
       0.04733494 0.004185587 0.01950185 -0.0977775
0001b0 38 c7 e5 3d 4e 83 be bd 2e 4a 9a 3d 78 8e af bc
       0.112196386 -0.09302388 0.0753368 -0.02143024
0001c0 d6 08 b4 3d 58 d1 a9 bc 5e 19 c4 bd 3c e2 82 3d
       0.08790748 -0.020729706 -0.09575151 0.06390807
0001d0 68 ec 4d 3d 90 ef f1 3d 40 83 dd 3d 1c ff dc bd
       0.050274283 0.11813271 0.108160496 -0.10790846
0001e0 9c 29 0e 3d 96 44 d4 bd f8 f0 f7 bd 10 84 51 bd
       0.03470765 -0.10364644 -0.12106508 -0.051151335
0001f0 30 16 09 bd d8 ba 2c bd 80 d6 3e 3b 2a 5a f1 bd
       -0.033468425 -0.042170376 0.0029119551 -0.117847756
000200 40 d0 02 bd c8 f0 d3 bc c0 7c f9 3d 48 c3 dd 3d
       -0.031936884 -0.02587165 0.12181997 0.108282626
000210 c6 7c d7 3d 30 ec 17 bd 84 bf ea 3d 48 30 76 bd
       0.105218455 -0.03709048 0.1146231 -0.06010464
000220 64 62 ef 3d 06 ac e5 3d cc 85 fb 3d aa ca d8 bd
       0.116886884 0.112144515 0.12281379 -0.1058553
000230 90 7f 29 bc 20 3e e0 bb 44 90 2a 3d 4c 61 ea 3d
       -0.010345355 -0.0068433434 0.04164149 0.11444339
000240 70 59 03 3d a0 a3 48 bd ae 6a 86 bd bc c8 7e 3d
       0.032067716 -0.04898417 -0.06563316 0.062203154
000250 46 52 da 3d 80 d5 a2 3c 64 a1 44 3d 20 74 e7 bc
       0.10660224 0.019877195 0.048005477 -0.028253615
000260 d4 19 25 bd 58 c7 c0 3c 00 29 69 3a a4 91 37 3d
       -0.040307835 0.023532555 0.0008894354 0.044816628
000270 66 e5 aa bd 30 c4 cf bc 3c 95 a9 bd 18 6b ad 3d
       -0.083445355 -0.025362104 -0.08280417 0.08467692
000280 be 5a c6 3d 36 c7 fe bd 00 b6 6f bb 80 7d 8d 3b
       0.096852764 -0.1244034 -0.0036576986 0.0043179393
000290 1c 37 6d 3d a8 a4 c6 3c 70 be f0 bd 98 e0 7f bd
       0.057913885 0.024248436 -0.11755073 -0.06247005
0002a0 48 8f 4c 3d e0 c8 8e 3d 3a 68 ca 3d 68 18 f2 3d
       0.04994133 0.069719076 0.09883161 0.118210614
0002b0 90 de 18 3c 18 d3 39 3d 30 4c 67 bd 6c b3 8b 3d
       0.009330407 0.04536733 -0.056469142 0.068213314
0002c0 a0 b0 fd 3c ac 42 b6 3d 6c 59 b7 bd 82 7e bc 3d
       0.03096801 0.088994354 -0.08952603 0.09203817
0002d0 28 6d 58 bd ca 12 de 3d 78 52 2c bd d8 66 9b bc
       -0.052838475 0.108434275 -0.042070836 -0.018969938
0002e0 00 75 e2 3b 26 95 96 bd 50 f5 6d 3c c0 ae 6a bb
       0.00691092 -0.073526666 0.014523819 -0.0035809726
0002f0 7c 3a dd 3d de 65 c7 bd 96 d0 f1 3d 84 11 69 bd
       0.10802171 -0.097362265 0.11807363 -0.05690147
000300 c0 63 d3 bd 00 7d e1 bc a4 fc 42 bd 90 eb 61 3d
       -0.1032176 -0.027525425 -0.047604218 0.05515629
000310 14 9d f8 3d 80 70 19 bc 76 41 ed 3d 0e 2f c7 bd
       0.12139335 -0.009365201 0.11584751 -0.09725772
000320 64 d3 a4 bd 6c 50 49 bd 38 02 98 bd 88 9d 64 3d
       -0.08048132 -0.049148962 -0.07422298 0.055814296
000330 c4 f0 33 3d 64 e7 56 bd a8 66 f8 3c 34 49 b3 3d
       0.043930784 -0.052466765 0.030322388 0.08754197
000340 00 5b cc bb e0 a0 9b 3d 90 72 08 3d 98 75 6a 3d
       -0.006236434 0.07599044 0.03331238 0.057241052
000350 60 6e 05 bd 78 7d bb bd 5c a1 fd bd a4 ca b4 3d
       -0.032575965 -0.09154791 -0.123842925 0.08827713
000360 46 74 86 bd 40 91 3f bd 5a 29 ac 3d 76 3d a8 3d
       -0.06565146 -0.04676938 0.08406325 0.08214848
000370 ac d9 6d 3d 50 a1 1f 3c b4 cf a2 3d e4 f8 57 bd
       0.058068916 0.00974305 0.079497725 -0.052727595
000380 c0 71 54 bb 60 f4 a0 bc 44 90 fe 3d 9a cb ca bd
       -0.0032416433 -0.019647777 0.1242986 -0.09902115
000390 48 d8 db bd c2 2d bb 3d 38 c3 34 3d f2 98 dc 3d
       -0.10734612 0.09139587 0.044131488 0.107713595
0003a0 a0 c6 b2 3d 08 63 28 bd d4 12 8a bd 06 0f a5 3d
       0.08729291 -0.04111007 -0.067418724 0.08059506
0003b0 14 c7 f6 3d c0 f4 95 bb fa eb ea bd de 70 8d bd
       0.1204969 -0.0045762956 -0.1147079 -0.06906293
0003c0 48 20 d6 bc 64 6d 90 3d 34 84 46 bd c4 c7 06 bd
       -0.02613844 0.070521146 -0.048465922 -0.032905355
0003d0 0c 5d 84 bd 80 7e c2 bd 28 a5 62 bd 60 71 13 bc
       -0.0646306 -0.09496784 -0.055333287 -0.008999199
0003e0 b0 2c b2 bd c0 83 3a 3d 44 7a 57 3d ae 22 b4 bd
       -0.0869993 0.045535803 0.052606836 -0.08795677
0003f0 38 b8 d1 3c ce b0 b5 3d d0 be 65 bc 90 f8 10 bc
       0.025600538 0.088716134 -0.014022544 -0.008848324

fc1.bias f4 [128]
000000 0c 7e bd 3d c8 c6 61 bd 54 9d b5 3d 74 7e 2a 3d
       0.09252557 -0.055121213 0.088678986 0.0416245
000010 2c 1d f5 bd ec 6d 65 bd 3c 61 92 3d 78 26 2d 3d
       -0.11968455 -0.056013033 0.07147452 0.042273015
000020 40 b7 2e bd 56 48 d2 bd 2c c7 5c bd f0 2b 98 3c
       -0.04265523 -0.10267703 -0.053900883 0.018575639
000030 e4 2a 61 bd 9e c7 c9 bd 20 7c 36 3c 40 3b a9 3d
       -0.054972544 -0.09852527 0.011137992 0.08263254
000040 20 cf 8e bd 38 7e 36 bd 30 3e a8 bd 06 16 eb 3d
       -0.069731 -0.044553965 -0.08214986 0.1147881
000050 34 7f b7 bd 38 05 7a 3d 08 ac 82 bc 30 bb d5 3c
       -0.08959809 0.061040133 -0.015951172 0.026090235
000060 80 9d 8a bb e0 e8 2a bd 30 09 1e bc b0 8a 70 3d
       -0.0042302012 -0.041725993 -0.009645745 0.058726013
000070 68 de cc bc 44 21 64 3d 00 1e 74 3b 70 aa 64 bd
       -0.025008395 0.055695787 0.0037249327 -0.055826604
000080 e2 11 f6 bd 4e f9 a0 bd 0a 42 f7 bd 88 5a 9f bc
       -0.120151296 -0.07860051 -0.12073143 -0.019452348
000090 c6 0d 9a bd 40 4e d4 bd a8 e6 d7 bc a0 9d c1 3d
       -0.07522158 -0.103664875 -0.026355103 0.09453893
0000a0 dc ca ac 3d 80 17 cd bc 40 68 35 bc 04 7f 3e bd
       0.0843713 -0.02503562 -0.011072218 -0.04650785
0000b0 c4 fc e6 bd b0 ea 2a 3c 38 d6 be bc c0 dc 0b bc
       -0.1127868 0.01043193 -0.023295507 -0.008536518
0000c0 80 35 47 bd b8 a6 8f bd b6 06 d5 bd 12 9a a5 3d
       -0.048635006 -0.07014221 -0.10401671 0.08086027
0000d0 b8 7c 6d bd 70 1c 1b bc 00 60 3f 3b 90 95 7b bd
       -0.05798027 -0.009467229 0.0029201508 -0.06142193
0000e0 20 f9 d9 bc e2 0b 97 bd 04 c9 8a bd 06 65 ab 3d
       -0.02660805 -0.07375313 -0.06776622 0.08368878
0000f0 52 d6 f5 bd f6 aa ec bd d8 34 d5 3d b8 ac 54 bd
       -0.12003769 -0.11556046 0.1041047 -0.05192253
000100 ae 3a 90 3d c0 62 6d 3d b8 eb 82 bd 78 bf 2c bd
       0.07042442 0.057955503 -0.06392616 -0.042174786
000110 e0 8e 85 bb 7a 81 c0 bd a4 2b d2 3d ba bd d8 3d
       -0.00407587 -0.09399696 0.1026223 0.105830625
000120 50 ce 84 3c f0 d5 d5 3c a6 d4 ee 3d 88 18 aa bc
       0.016211659 0.02610299 0.11661653 -0.02076365
000130 50 60 7f bc 00 23 be bd ba 9b fc 3d 20 18 bb 3c
       -0.0155869275 -0.092840195 0.1233439 0.022838652
000140 66 5f d4 3d 30 d8 c1 bd 30 f1 e7 bd 80 91 b6 bb
       0.10369758 -0.094650626 -0.113253 -0.005571544
000150 48 06 c0 3d e2 6c ed bd 40 4f c5 3c 44 8c f5 bd
       0.09376198 -0.115930334 0.02408564 -0.11989644
000160 e8 19 40 bd d0 c5 8f 3c a8 d7 9f bc 8e 95 bf bd
       -0.046899706 0.017550379 -0.019512013 -0.09354697
000170 d0 d4 18 3c ec 57 28 bd cc 43 25 bd fc aa 8d 3d
       0.009328082 -0.041099474 -0.04034786 0.06917378
000180 ee ba ae bd 70 94 0d 3c 24 1c 49 3d 00 c0 20 b8
       -0.08531748 0.008641347 0.049099103 -3.8325787e-05
000190 e0 bd 3d bc 80 98 09 3d c4 96 b6 bd b6 2c ef bd
       -0.011580914 0.0335927 -0.08915475 -0.1167845
0001a0 ba 61 92 3d e0 8e a1 3c fa 2f eb 3d 90 82 c3 bd
       0.07147546 0.019721448 0.1148376 -0.09546387
0001b0 10 8d 50 bc ec 3a bd bd 04 ec cc 3d 68 17 05 bd
       -0.012728944 -0.09239754 0.10005954 -0.032493025
0001c0 b2 99 dc bd 4e ae a6 3d 3a cb 84 bd 40 78 d7 3d
       -0.107715026 0.08138715 -0.06484075 0.10520983
0001d0 10 bf ee 3d b8 2f a1 bc b4 c9 25 3d 80 16 02 3c
       0.11657536 -0.019676074 0.040475562 0.007939935
0001e0 04 34 7a 3d 80 d1 69 bc f8 0e 80 3c b0 c5 3a bd
       0.061084762 -0.01427114 0.015632138 -0.045598686
0001f0 72 7e c6 bd 40 82 61 3c 02 de 9f 3d 08 70 da 3d
       -0.09692086 0.013763964 0.078060165 0.106658995

fc2.weight f4 [128, 128]
000000 b3 87 ce bc 97 77 0b bd a8 94 37 3d f6 3f 93 3d
       -0.02521119 -0.034049597 0.044819504 0.07189934
000010 39 a5 f8 3b 93 f9 ff bc ed 9c 15 bc e2 51 e9 3c
       0.0075880555 -0.031246936 -0.009131652 0.028481428
000020 ad e8 8a bd 7d 71 8b 3d 4c c9 08 bd 88 b8 a4 3c
       -0.06782661 0.068087555 -0.033395097 0.020107523
000030 ce ed 1a 3d 1f 30 75 3d 7d 68 9d 3d 91 9d 2a 3d
       0.037824444 0.059860345 0.07685945 0.041654173
000040 89 0a 53 bd c2 38 2e 3c cd 31 3a 3d 2e fb 24 3d
       -0.05152372 0.010633649 0.04545765 0.040278606
000050 35 59 17 bc f0 94 08 bd 05 55 80 bd 62 e5 5e 3d
       -0.009237577 -0.033345163 -0.06266216 0.054417975
000060 66 af 2a bd ec 3f 9e 3d 1b e5 9d 3d 12 cd 42 3d
       -0.04167118 0.07727036 0.07709714 0.04755885
000070 91 b6 aa 3d 51 a4 54 bd a2 07 87 3d c2 9c 61 bd
       0.08335603 -0.051914517 0.06593253 -0.055081137
000080 99 cb 8c bd bb af 00 bd 06 77 57 3d cc 7b 5b 3d
       -0.06874771 -0.03141759 0.052603744 0.05358486
000090 2e 35 a9 3d 99 ca c8 bb 6f 94 4f bd e4 5a 9e bd
       0.08262096 -0.006127667 -0.050678667 -0.0773218
0000a0 8d d4 af 3d 6c ac d3 3c 43 de 99 3d fd c1 53 3c
       0.08585463 0.025839053 0.07513096 0.012924668
0000b0 6f f7 92 3d 1e d8 81 bd 6f 48 57 bb cc e1 ff bc
       0.071761005 -0.06340049 -0.003284957 -0.031235598
0000c0 8d 1c 7a bd f7 ff 6f bd ef 1f 52 bd d4 01 8c b5
       -0.061062384 -0.058593716 -0.051299985 -1.0431345e-06
0000d0 de fd 08 bd 97 b0 b7 3c 69 29 00 bd 69 5a 5b 3d
       -0.03344523 0.022423072 -0.03128949 0.05355302
0000e0 46 6d 69 bd 53 83 24 bd fe 6d 99 bc a1 ff 7f bc
       -0.056988977 -0.040164303 -0.018729206 -0.0156249115
0000f0 67 ef 52 bc d2 40 18 3d c7 0d 0d bd af 6b 08 bd
       -0.012874461 0.037171192 -0.034436967 -0.03330582
000100 14 b9 e0 bc a7 3a 4f bd c4 36 09 bd e6 c1 68 bc
       -0.027432002 -0.050593045 -0.033499494 -0.014206385
000110 93 9b af 3c cd 44 17 3d d0 98 15 3c b5 ea c3 3c
       0.021436488 0.036930848 0.009130672 0.023915628
000120 af d8 f4 3b 2e be 4e bd 70 a0 2e bd 29 f4 2f 3c
       0.0074721198 -0.05047434 -0.042633474 0.010739365
000130 cf 7e 38 bd 50 0f 8f 3d a8 84 92 bb 02 f3 b4 3c
       -0.04504281 0.069853425 -0.0044713803 0.022088531
000140 5c 94 2f bd d6 d6 c4 bc d9 b8 34 bd c8 90 90 bd
       -0.042866096 -0.024028223 -0.044121597 -0.07058865
000150 cd 7c 9c bc 02 50 9d 3c d8 e5 d4 bb af ab 74 bd
       -0.019102478 0.01920319 -0.006497126 -0.059734043
000160 47 c7 79 bd d6 a5 94 3d d2 36 a9 bc 63 13 6c 3d
       -0.06098106 0.07258193 -0.020656023 0.057635676
000170 13 8d 8e bc f7 a6 c2 bc 1f 87 9c bc 2c 62 14 bd
       -0.017401254 -0.023761256 -0.0191074 -0.036226436
000180 ef 7d 86 bc c7 e1 48 bd dd 84 9d 3d f0 40 92 3d
       -0.016417472 -0.049043443 0.07691357 0.07141292
000190 40 bd 72 bc 12 2f 21 3d b6 0e 9f 3d 36 71 16 bd
       -0.0148156285 0.03935153 0.07766478 -0.03672906
0001a0 c6 5c b2 bd 4b 80 83 3b b0 17 20 bc d0 f3 8c bc
       -0.087091014 0.0040130964 -0.009771273 -0.017206103
0001b0 e1 4c a8 bd 1e 69 78 bd e9 66 41 bd 63 d2 5b 3a
       -0.082177885 -0.060647123 -0.047217283 0.0008385537
0001c0 b9 14 4d bd 1e c8 a4 3d 3f ec 1f 3d df a7 07 3d
       -0.05006859 0.08045982 0.03904366 0.03311908
0001d0 cd d3 63 3c ce f2 17 bd 5d ca 86 3d 46 25 21 3d
       0.013905478 -0.03709679 0.065815665 0.039342187
0001e0 ea 5d 06 ba 85 d9 fd bc cf 26 95 3d 88 2a 32 3d
       -0.00051256886 -0.03098751 0.07282793 0.043497592
0001f0 c4 9b a1 3d d9 1a 72 3d ae 01 33 3d cc 3e 59 bd
       0.07891038 0.059107635 0.043702774 -0.053038403
000200 ce b0 25 3d 49 a2 ac bc 3d ea 8b 3d a8 8c 93 3d
       0.040451817 -0.021073477 0.06831787 0.072045624
000210 ce d6 5b 3c f8 46 9b bd ce bb e3 bc 39 6c aa 3c
       0.013417913 -0.075818956 -0.027799513 0.020803558
000220 d7 db 84 bd 82 40 79 bd 7f 8f 07 bd 29 00 89 bd
       -0.064872436 -0.060852535 -0.033095833 -0.06689484
000230 9d a5 2d bd f8 8e 90 3d 3c 86 5e 3d 79 6a 82 3d
       -0.04239427 0.07058519 0.054327235 0.06367964
000240 8e 65 f9 bb 83 ff eb bc 98 bd f0 bc 65 fb 1a 3d
       -0.007610983 -0.02880836 -0.02938728 0.037837405
000250 c7 a5 a4 bd a5 ce 71 3d 66 ef 57 3d 23 58 50 3c
       -0.08039432 0.059034962 0.052718543 0.012716326
000260 6e 7e 50 bd cd 7a 75 3d b9 50 96 3d 3a 9b 3e 3d
       -0.050901823 0.059931565 0.073396154 0.046534754
000270 90 29 ca bc 2f c4 c5 3c 5b f3 02 3c 61 7f 3d 3d
       -0.024678022 0.0241414 0.007992591 0.046264056
000280 72 ae 63 bd 19 d9 90 bd 28 a2 83 bd e6 21 00 bd
       -0.055586286 -0.07072658 -0.06427413 -0.031282328
000290 41 c1 fe 3b 37 e8 e8 bc 87 1d 4d 3d f5 f9 3a bc
       0.0077745025 -0.028431041 0.050076988 -0.011412133
0002a0 af 07 6d 3d 29 2d 5c bd c4 81 8d bc 8a 49 20 bd
       0.057868656 -0.053754006 -0.017273791 -0.039132632
0002b0 5a 79 d8 3c d7 33 6e bd 93 ff 86 3d 6b 27 9b 3d
       0.026425052 -0.058154907 0.06591716 0.07575878
0002c0 22 a0 ba bc 84 d5 89 bd b5 f9 39 bd a9 39 6a bd
       -0.022781435 -0.06730178 -0.045404155 -0.057183895
0002d0 86 01 61 3d ae e6 85 bc b6 98 6c bd ea 47 6c bd
       0.054933093 -0.016345348 -0.057762824 -0.05768577
0002e0 07 d4 4d bd 28 68 22 3c b9 94 1e 3d a1 1e 91 bd
       -0.050251033 0.009912528 0.03871605 -0.0708592
0002f0 98 09 f3 3c ca 14 93 3d e4 a5 bc 3c 92 7e ac 3d
       0.02966766 0.071816996 0.023028322 0.08422579
000300 34 79 28 bd fa e8 73 bc 0c a7 a0 bd e3 01 7b bd
       -0.041131213 -0.014887089 -0.07844362 -0.061281096
000310 a2 73 86 bd 9d bf 44 3d 8e 41 8d bd ac ce d3 bc
       -0.06565024 0.0480343 -0.06897269 -0.025855385
000320 31 f9 a5 3d 34 6d 26 3d 39 47 41 3d f6 15 6c bd
       0.0810417 0.040631488 0.047187064 -0.05763813
000330 b2 1a 8f 3c 39 8e ef 3b 0e 4f 91 3c 05 33 94 3c
       0.017468784 0.0073106554 0.017737892 0.018090734
000340 a2 fa e6 bc ca 59 ab 3d a9 9a 95 3d c5 6f 87 bd
       -0.028195683 0.08366735 0.0730489 -0.06613115
000350 fc 71 2b bd aa 53 ad bd b1 41 a8 bd 69 d1 a5 bc
       -0.04185675 -0.08463223 -0.08215655 -0.020241456
000360 b5 8f ab bc ea 56 b3 3d c9 9c aa 3d 3a 48 2e 3d
       -0.020942548 0.08756812 0.08330686 0.04254935
000370 15 90 ee bc c3 31 a0 bd 15 d0 89 bd fb 01 45 bd
       -0.029121438 -0.07821991 -0.067291416 -0.04809759
000380 b0 94 62 3d eb db 55 3c 51 12 94 3b cc d5 97 bd
       0.05531758 0.013052921 0.004518785 -0.074138254
000390 62 09 bb 3c d2 2d 45 bd 10 37 a6 3d ab dd 72 3d
       0.022831623 -0.0481394 0.08115971 0.05929343
0003a0 12 88 8f bd 38 59 69 bd a1 ec a5 3d 95 17 eb bc
       -0.07008375 -0.05696985 0.08101774 -0.028697768
0003b0 b2 fc 54 bd 11 b9 43 3d 2d b3 91 3a 5e 8a e4 3a
       -0.0519988 0.047783915 0.0011116021 0.0017436256
0003c0 de 8e 9a 3d 92 7f 7c bd f8 52 21 bc 49 2c 82 3d
       0.07546781 -0.061645098 -0.009846441 0.06356103
0003d0 4e 5c 1f 3c 5e ae a0 3d ea c4 1a bd 23 8e a6 bd
       0.009726597 0.07845758 -0.037785448 -0.08132579
0003e0 b0 78 7e 3c 79 c9 6d 3d 82 e3 38 3d 58 98 ea 3b
       0.015531704 0.058053467 0.045138843 0.007159274
0003f0 be c5 fd bc 8b 9e 87 bd a3 5a 27 3d 23 1c 9a 3d
       -0.03097808 -0.066220365 0.040857922 0.07524898

fc2.bias f4 [128]
000000 2f bf 28 bd c2 f2 11 3d c6 a1 f0 3c 34 d2 8b bd
       -0.041197952 0.035631903 0.029374015 -0.068272024
000010 cc 54 8a bd 7e 98 a4 bd 83 18 0e bd 5b a4 18 3c
       -0.06754455 -0.08036898 -0.034691345 0.009316529
000020 8d 66 f4 bc 9e 43 3d bc 24 14 76 bd 4a dd dd bb
       -0.029834056 -0.011551766 -0.0600778 -0.0067707645
000030 fb 1b 45 3d b1 87 9e 3d 36 18 5e 3d 44 4d bf 3c
       0.048122387 0.07740725 0.054222308 0.023352273
000040 3d 15 19 bd dc 4d 82 3d a8 0e bc 3c ee d8 88 bd
       -0.03737377 0.06362507 0.022956207 -0.06682001
000050 df 27 64 bd dc 4c bc 3c 9d a5 75 bc d3 26 8d 3d
       -0.055702087 0.022985868 -0.014993099 0.06892171
000060 cb 82 0f 3d d7 97 4a bd 5f e5 d6 3c 32 43 1c 3d
       0.035036843 -0.049461212 0.02623242 0.03815002
000070 75 32 4c bc e7 8b 9e 3d 55 7a 13 3d 8b c7 0a bd
       -0.012463202 0.07741528 0.036005337 -0.033881705
000080 60 84 92 bd 33 6a 9e 3d 8e bd 8a 3d a5 1a 36 3d
       -0.07154155 0.077351 0.06774436 0.044459004
000090 47 2d 76 bd 1a 95 37 bd 00 f4 ac bd f6 16 13 bd
       -0.060101774 -0.04481993 -0.08444977 -0.03591057
0000a0 6b c0 ad bc af d2 70 bd 8d bd a3 3d d7 d6 7c bd
       -0.021209916 -0.058794674 0.07995138 -0.061728325
0000b0 17 55 4f bd 0e ce 78 ba e6 f5 67 3c 01 a9 66 3d
       -0.050618257 -0.0009491154 0.014157748 0.05631352
0000c0 2d bf 6d bd 94 d3 2d bd b6 c3 af 3d 48 f5 69 bd
       -0.058043648 -0.042438105 0.08582251 -0.057118684
0000d0 68 7d 0e 3d 67 cd 76 bd 52 73 29 3d 05 70 22 bc
       0.034787565 -0.06025448 0.041369744 -0.009914403
0000e0 9f 62 02 bc f1 78 56 3c a5 70 85 3d 04 21 2e bd
       -0.007958083 0.013090358 0.06515626 -0.042511955
0000f0 80 88 34 39 0b 24 82 3a 54 ca 98 bd 62 6e 9e 3c
       0.00017216988 0.0009928955 -0.07460466 0.019339744
000100 dd 52 2d bc f7 a4 d5 bc 52 80 2a 3d 24 53 74 3d
       -0.010578838 -0.026079638 0.041626282 0.0596496
000110 bd 45 20 bc d7 a0 a0 3d 84 e7 38 3d b2 aa a9 3c
       -0.009782252 0.07843178 0.045142666 0.020711277
000120 85 7d a7 3c 8c 9d 08 3c 6e 11 1f 3d 2c 54 47 bd
       0.020445595 0.008338343 0.03883498 -0.048664257
000130 72 a8 4c bd df d6 24 bd 0d e9 99 bb 96 f1 31 3d
       -0.04996533 -0.04024398 -0.0046969713 0.043443285
000140 e1 43 88 bd 16 ee 7e bd 06 3f 78 3d f6 23 af 3b
       -0.06653572 -0.062238775 0.06060698 0.005344863
000150 ce c3 69 3d 50 96 77 bc 20 93 b0 bc 8b 2a f3 3c
       0.0570715 -0.015111521 -0.02155453 0.029683372
000160 4f 84 58 bd d3 ff c0 3c 60 30 1f bc b6 84 94 3c
       -0.052860554 0.023559486 -0.009716123 0.018129688
000170 ce b4 23 b9 6e 73 29 bd 20 30 be bc 3e a5 aa 3d
       -0.00015612246 -0.041369848 -0.023216307 0.08332299
000180 e4 09 52 bd 9e 08 a5 bd cd 7d 6b 3a 67 07 39 3d
       -0.051278964 -0.08058284 0.00089832844 0.045173075
000190 99 27 b1 3d 73 f4 52 bd c2 be 0c bd f9 ca b0 bd
       0.08650131 -0.051502656 -0.03436161 -0.08632464
0001a0 10 4b 39 3d c8 d0 1e bc ed 54 27 bc 60 03 60 bd
       0.0452376 -0.009693332 -0.010213119 -0.05469072
0001b0 8d db 0c bd 26 1a f7 3c 90 3e 49 bd fd 4d 6e 3b
       -0.034389067 0.030163836 -0.04913193 0.0036362403
0001c0 1f bb 52 bb 90 c1 af 3d 2e 44 05 bc c6 f9 8a 3d
       -0.003215499 0.08581841 -0.008133931 0.06785922
0001d0 e1 95 08 bd e2 51 80 3c 3a 0b 98 bd 01 53 e2 bb
       -0.03334606 0.015664045 -0.07424016 -0.0069068675
0001e0 46 be 14 3d 6a 33 77 3d fc 63 e8 bc f5 7a 09 bd
       0.03631427 0.060351767 -0.028367989 -0.033564527
0001f0 00 df 18 bc 1b 9d 10 bc a4 2d 22 3d 0b 11 3c 3c
       -0.009330511 -0.008826519 0.039594308 0.011478673

fc3.weight f4 [1, 128]
000000 74 2e 9f 3c c4 3c 8d bd 9f 20 d1 3c 54 9c 6d bb
       0.01943133 -0.06896356 0.02552825 -0.003625651
000010 e2 ea 13 bd 63 a8 10 3d da ec 36 3c 7e cd 5f bd
       -0.036112674 0.035316836 0.011164868 -0.054639332
000020 65 ab b4 bd 40 85 77 bd ef c6 60 bb 4e 11 99 3d
       -0.088217534 -0.06042981 -0.003429826 0.07474004
000030 d0 b6 c5 bc 6d 51 03 3d f3 ee 78 bd 4e db 1d bd
       -0.024135023 0.032060076 -0.060774755 -0.038539223
000040 85 65 47 bd 2b 97 61 bd 13 ed ba bc bc f8 03 3d
       -0.0486808 -0.055075806 -0.022818124 0.032219633
000050 cc 05 96 39 78 a5 e2 3b e5 1f 16 bd 8c 78 44 3c
       0.00028614549 0.006916698 -0.03665151 0.011991631
000060 2d 7b e2 bc 36 1b 9b 3d ba 83 34 bc 50 d5 ab bd
       -0.027646625 0.075735494 -0.011017734 -0.083902955
000070 33 8b 7f bd ff a8 89 bd 49 6e 4a 3d f4 eb 70 bd
       -0.06238861 -0.067216866 0.049421582 -0.058818772
000080 ad 42 96 bc ac f4 ae 3d 16 a9 33 3d 27 cc 09 3d
       -0.01834234 0.08542761 0.043862425 0.03364196
000090 cf 85 d9 bb ac cd 5c bd f6 18 96 bd 00 0f 4d 3d
       -0.0066382657 -0.05390708 -0.0732898 0.050063133
0000a0 9a 65 22 bd 5d dc 59 bd a6 41 5b 3c 74 52 66 bb
       -0.039647676 -0.05318867 0.013382351 -0.003514436
0000b0 36 a1 b7 3c 45 a1 af 3d 89 c6 9e bd c0 f3 ab 3d
       0.022415739 0.085756816 -0.07752711 0.08396101
0000c0 e7 68 a3 bc 11 6f 3c 3d e2 d4 a0 3d eb c3 6f 3c
       -0.019947482 0.04600436 0.07853104 0.014634113
0000d0 b0 bc 11 bd 69 7a 7c 3d a1 8c a7 bd 79 80 7a 3d
       -0.035580337 0.061640177 -0.0818112 0.061157677
0000e0 09 b6 b3 3d 32 a2 43 bd e2 b1 93 3c 42 81 37 bc
       0.08774955 -0.047762103 0.018029157 -0.011200251
0000f0 8d b7 74 3d 99 5b 9c 3d be 21 4e 3d 5c a2 8f bd
       0.05974536 0.07634658 0.050325148 -0.070133895
000100 c7 12 68 3d 64 ff 4b bd 6b bc af 3d c6 7f 96 bc
       0.056658532 -0.049804106 0.0858086 -0.018371474
000110 21 e9 77 bc 2c 4f 0d bd 2d ef ae bd 99 85 d7 3c
       -0.015131266 -0.034499332 -0.08541713 0.026308822
000120 94 64 9e 3d 94 fc 2d bd 01 62 9f 3d 92 ba 5e bc
       0.077340275 -0.042477205 0.07782365 -0.0135942865
000130 21 90 8b 3d 27 79 23 bd 6c c3 dc 3b ae 1a 44 3d
       0.068146 -0.03991046 0.0067371633 0.047877006
000140 fe 9b 68 3d 38 40 86 3a 48 94 22 bd e2 05 f3 bc
       0.05678939 0.0010242527 -0.039692193 -0.029665891
000150 77 b9 97 bd 8d d8 63 3d ef e5 52 bd 6f 51 91 3d
       -0.074084215 0.05562644 -0.051488813 0.0709561
000160 70 1d 5a bc ad 16 98 3d 6c a6 ad 3d 7c 9e 88 3d
       -0.0133126825 0.074262 0.08479008 0.066708535
000170 fa 87 83 3d d9 29 4b 3d 34 1d fe 3b e5 e0 41 3d
       0.0642242 0.049600456 0.007754946 0.047333617
000180 48 ec b2 3d f6 0e df bc 76 05 89 3d 16 ef 01 3d
       0.08736473 -0.027228814 0.06690495 0.03172215
000190 a3 d7 91 3d 16 68 44 3d e4 1c 7d 3d 69 20 9f 3d
       0.071212076 0.047950827 0.06179513 0.077698536
0001a0 42 7e 93 bd 2e e0 92 bd 5a 12 1c bd d3 a8 ef 3a
       -0.07201816 -0.07171665 -0.03810344 0.0018284566
0001b0 31 9d 99 bd c8 46 60 bd 1c 5b 1f bc 50 ee 98 bd
       -0.07500685 -0.054755002 -0.009726312 -0.074673295
0001c0 c4 dd 8b 3a b5 18 04 3d 03 cb bc 3b 02 53 81 bd
       0.001067095 0.032250125 0.0057615056 -0.063146606
0001d0 aa b1 58 bd fc 74 7c bd fb eb 36 3d be a4 31 bd
       -0.05290381 -0.061635002 0.044658642 -0.04337
0001e0 9f af 43 3d 0f 11 a8 bd e9 96 ea 3c 6d 8b 1d bc
       0.047774907 -0.08206379 0.028636413 -0.009615761
0001f0 dd 51 b2 3d 37 18 16 3d 5c 74 87 bd 7e 33 97 bd
       0.087070204 0.036644187 -0.06613991 -0.07382868
